…
      sampler {
        min_scale: 0.3
        max_scale: 1
        min_aspect_ratio: 0.5
        max_aspect_ratio: 2
      }
      sample_constraint {
        min_jaccard_overlap: 0.9
      }
      max_sample: 1
      max_trials: 50
    }
    batch_sampler {
      sampler {
        min_scale: 0.3
        max_scale: 1
        min_aspect_ratio: 0.5
        max_aspect_ratio: 2
      }
      sample_constraint {
        max_jaccard_overlap: 1
      }
      max_sample: 1
      max_trials: 50
    }
    label_map_file: "data/VOC0712/labelmap_voc.prototxt"
  }
}
layer {
  name: "conv1_1"
  type: "Convolution"
  bottom: "data"
  top: "conv1_1"
  param {
    lr_mult: 1
    decay_mult: 1
  }
  param {
    lr_mult: 2
    decay_mult: 0
  }
  convolution_param {
    num_output: 64
    pad: 1
    kernel_size: 3
    weight_filler {
      type: "xavier"
    }
    bias_filler {
      type: "constant"
      value: 0
    }
  }
}
layer {
  name: "relu1_1"
  type: "ReLU"
  bottom: "conv1_1"
  top: "conv1_1"
}
layer {
  name: "conv1_2"
  type: "Convolution"
  bottom: "conv1_1"
  top: "conv1_2"
  param {
    lr_mult: 1
    decay_mult: 1
  }
  param {
    lr_mult: 2
    decay_mult: 0
  }
  convolution_param {
    num_output: 64
    pad: 1
    kernel_size: 3
    weight_filler {
      type: "xavier"
    }
    bias_filler {
      type: "constant"
      value: 0
    }
  }
}
layer {
  name: "relu1_2"
  type: "ReLU"
  bottom: "conv1_2"
  top: "conv1_2"
}
layer {
  name: "pool1"
  type: "Pooling"
  bottom: "conv1_2"
  top: "pool1"
  pooling_param {
    pool: MAX
    kernel_size: 2
    stride: 2
  }
}
layer {
  name: "conv2_1"
  type: "Convolution"
  bottom: "pool1"
  top: "conv2_1"
  param {
    lr_mult: 1
    decay_mult: 1
  }
  param {
    lr_mult: 2
    decay_mult: 0
  }
  convolution_param {
    num_output: 128
    pad: 1
    kernel_size: 3
    weight_filler {
      type: "xavier"
    }
    bias_filler {
      type: "constant"
      value: 0
    }
  }
}
layer {
  name: "relu2_1"
  type: "ReLU"
  bottom: "conv2_1"
  top: "conv2_1"
}
layer {
  name: "conv2_2"
  type: "Convolution"
  bottom: "conv2_1"
  top: "conv2_2"
  param {
    lr_mult: 1
    decay_mult: 1
  }
  param {
    lr_mult: 2
    decay_mult: 0
  }
  convolution_param {
    num_output: 128
    pad: 1
    kernel_size: 3
    weight_filler {
      type: "xavier"
    }
    bias_filler {
      type: "constant"
      value: 0
    }
  }
}
layer {
  name: "relu2_2"
  type: "ReLU"
  bottom: "conv2_2"
  top: "conv2_2"
}
layer {
  name: "pool2"
  type: "Pooling"
  bottom: "conv2_2"
  top: "pool2"
  pooling_param {
    pool: MAX
    kernel_size: 2
    stride: 2
  }
}
layer {
  name: "conv3_1"
  type: "Convolution"
  bottom: "pool2"
  top: "conv3_1"
  param {
    lr_mult: 1
    decay_mult: 1
  }
  param {
    lr_mult: 2
    decay_mult: 0
  }
  convolution_param {
    num_output: 256
    pad: 1
    kernel_size: 3
    weight_filler {
      type: "xavier"
    }
    bias_filler {
      type: "constant"
      value: 0
    }
  }
}
layer {
  name: "relu3_1"
  type: "ReLU"
  bottom: "conv3_1"
  top: "conv3_1"
}
layer {
  name: "conv3_2"
  type: "Convolution"
  bottom: "conv3_1"
  top: "conv3_2"
  param {
    lr_mult: 1
    decay_mult: 1
  }
  param {
    lr_mult: 2
    decay_mult: 0
  }
  convolution_param {
    num_output: 256
    pad: 1
    kernel_size: 3
    weight_filler {
      type: "xavier"
    }
    bias_filler {
      type: "constant"
      value: 0
    }
  }
}
layer {
  name: "relu3_2"
  type: "ReLU"
  bottom: "conv3_2"
  top: "conv3_2"
}
layer {
  name: "conv3_3"
  type: "Convolution"
  bottom: "conv3_2"
  top: "conv3_3"
  param {
    lr_mult: 1
    decay_mult: 1
  }
  param {
    lr_mult: 2
    decay_mult: 0
  }
  convolution_param {
    num_output: 256
    pad: 1
    kernel_size: 3
    weight_filler {
      type: "xavier"
    }
    bias_filler {
      type: "constant"
      value: 0
    }
  }
}
layer {
  name: "relu3_3"
  type: "ReLU"
  bottom: "conv3_3"
  top: "conv3_3"
}
layer {
  name: "pool3"
  type: "Pooling"
  bottom: "conv3_3"
  top: "pool3"
  pooling_param {
    pool: MAX
    kernel_size: 2
    stride: 2
  }
}
layer {
  name: "conv4_1"
  type: "Convolution"
  bottom: "pool3"
  top: "conv4_1"
  param {
    lr_mult: 1
    decay_mult: 1
  }
  param {
    lr_mult: 2
    decay_mult: 0
  }
  convolution_param {
    num_output: 512
    pad: 1
    kernel_size: 3
    weight_filler {
      type: "xavier"
    }
    bias_filler {
      type: "constant"
      value: 0
    }
  }
}
layer {
  name: "relu4_1"
  type: "ReLU"
  bottom: "conv4_1"
  top: "conv4_1"
}
layer {
  name: "conv4_2"
  type: "Convolution"
  bottom: "conv4_1"
  top: "conv4_2"
  param {
    lr_mult: 1
    decay_mult: 1
  }
  param {
    lr_mult: 2
    decay_mult: 0
  }
  convolution_param {
    num_output: 512
    pad: 1
    kernel_size: 3
    weight_filler {
      type: "xavier"
    }
    bias_filler {
      type: "constant"
      value: 0
    }
  }
}
layer {
  name: "relu4_2"
  type: "ReLU"
  bottom: "conv4_2"
  top: "conv4_2"
}
layer {
  name: "conv4_3"
  type: "Convolution"
  bottom: "conv4_2"
  top: "conv4_3"
  param {
    lr_mult: 1
    decay_mult: 1
  }
  param {
    lr_mult: 2
    decay_mult: 0
  }
  convolution_param {
    num_output: 512
    pad: 1
    kernel_size: 3
    weight_filler {
      type: "xavier"
    }
    bias_filler {
      type: "constant"
      value: 0
    }
  }
}
layer {
  name: "relu4_3"
  type: "ReLU"
  bottom: "conv4_3"
  top: "conv4_3"
}
layer {
  name: "pool4"
  type: "Pooling"
  bottom: "conv4_3"
  top: "pool4"
  pooling_param {
    pool: MAX
    kernel_size: 2
    stride: 2
  }
}
layer {
  name: "conv5_1"
  type: "Convolution"
  bottom: "pool4"
  top: "conv5_1"
  param {
    lr_mult: 1
    decay_mult: 1
  }
  param {
    lr_mult: 2
    decay_mult: 0
  }
  convolution_param {
    num_output: 512
    pad: 1
    kernel_size: 3
    weight_filler {
      type: "xavier"
    }
    bias_filler {
      type: "constant"
      value: 0
    }
    dilation: 1
  }
}
layer {
  name: "relu5_1"
  type: "ReLU"
  bottom: "conv5_1"
  top: "conv5_1"
}
layer {
  name: "conv5_2"
  type: "Convolution"
  bottom: "conv5_1"
  top: "conv5_2"
  param {
    lr_mult: 1
    decay_mult: 1
  }
  param {
    lr_mult: 2
    decay_mult: 0
  }
  convolution_param {
    num_output: 512
    pad: 1
    kernel_size: 3
    weight_filler {
      type: "xavier"
    }
    bias_filler {
      type: "constant"
      value: 0
    }
    dilation: 1
  }
}
layer {
  name: "relu5_2"
  type: "ReLU"
  bottom: "conv5_2"
  top: "conv5_2"
}
layer {
  name: "conv5_3"
  type: "Convolution"
  bottom: "conv5_2"
  top: "conv5_3"
  param {
    lr_mult: 1
    decay_mult: 1
  }
  param {
    lr_mult: 2
    decay_mult: 0
  }
  convolution_param {
    num_output: 512
    pad: 1
    kernel_size: 3
    weight_filler {
      type: "xavier"
    }
    bias_filler {
      type: "constant"
      value: 0
    }
    dilation: 1
  }
}
layer {
  name: "relu5_3"
  type: "ReLU"
  bottom: "conv5_3"
  top: "conv5_3"
}
layer {
  name: "pool5"
  type: "Pooling"
  bottom: "conv5_3"
  top: "pool5"
  pooling_param {
    pool: MAX
    kernel_size: 3
    stride: 1
    pad: 1
  }
}
layer {
  name: "fc6"
  type: "Convolution"
  bottom: "pool5"
  top: "fc6"
  param {
    lr_mult: 1
    decay_mult: 1
  }
  param {
    lr_mult: 2
    decay_mult: 0
  }
  convolution_param {
    num_output: 1024
    pad: 6
    kernel_size: 3
    weight_filler {
      type: "xavier"
    }
    bias_filler {
      type: "constant"
      value: 0
    }
    dilation: 6
  }
}
layer {
  name: "relu6"
  type: "ReLU"
  bottom: "fc6"
  top: "fc6"
}
layer {
  name: "fc7"
  type: "Convolution"
  bottom: "fc6"
  top: "fc7"
  param {
    lr_mult: 1
    decay_mult: 1
  }
  param {
    lr_mult: 2
    decay_mult: 0
  }
  convolution_param {
    num_output: 1024
    kernel_size: 1
    weight_filler {
      type: "xavier"
    }
    bias_filler {
      type: "constant"
      value: 0
    }
  }
}
layer {
  name: "relu7"
  type: "ReLU"
  bottom: "fc7"
  top: "fc7"
}
layer {
  name: "conv6_1"
  type: "Convolution"
  bottom: "fc7"
  top: "conv6_1"
  param {
    lr_mult: 1
    decay_mult: 1
  }
  param {
    lr_mult: 2
    decay_mult: 0
  }
  convolution_param {
    num_output: 256
    pad: 0
    kernel_size: 1
    stride: 1
    weight_filler {
      type: "xavier"
    }
    bias_filler {
      type: "constant"
      value: 0
    }
  }
}
layer {
  name: "conv6_1_relu"
  type: "ReLU"
  bottom: "conv6_1"
  top: "conv6_1"
}
layer {
  name: "conv6_2"
  type: "Convolution"
  bottom: "conv6_1"
  top: "conv6_2"
  param {
    lr_mult: 1
    decay_mult: 1
  }
  param {
    lr_mult: 2
    decay_mult: 0
  }
  convolution_param {
    num_output: 512
    pad: 1
    kernel_size: 3
    stride: 2
    weight_filler {
      type: "xavier"
    }
    bias_filler {
      type: "constant"
      value: 0
    }
  }
}
layer {
  name: "conv6_2_relu"
  type: "ReLU"
  bottom: "conv6_2"
  top: "conv6_2"
}
layer {
  name: "conv7_1"
  type: "Convolution"
  bottom: "conv6_2"
  top: "conv7_1"
  param {
    lr_mult: 1
    decay_mult: 1
  }
  param {
    lr_mult: 2
    decay_mult: 0
  }
  convolution_param {
    num_output: 128
    pad: 0
    kernel_size: 1
    stride: 1
    weight_filler {
      type: "xavier"
    }
    bias_filler {
      type: "constant"
      value: 0
    }
  }
}
layer {
  name: "conv7_1_relu"
  type: "ReLU"
  bottom: "conv7_1"
  top: "conv7_1"
}
layer {
  name: "conv7_2"
  type: "Convolution"
  bottom: "conv7_1"
  top: "conv7_2"
  param {
    lr_mult: 1
    decay_mult: 1
  }
  param {
    lr_mult: 2
    decay_mult: 0
  }
  convolution_param {
    num_output: 256
    pad: 1
    kernel_size: 3
    stride: 2
    weight_filler {
      type: "xavier"
    }
    bias_filler {
      type: "constant"
      value: 0
    }
  }
}
layer {
  name: "conv7_2_relu"
  type: "ReLU"
  bottom: "conv7_2"
  top: "conv7_2"
}
layer {
  name: "conv8_1"
  type: "Convolution"
  bottom: "conv7_2"
  top: "conv8_1"
  param {
    lr_mult: 1
    decay_mult: 1
  }
  param {
    lr_mult: 2
    decay_mult: 0
  }
  convolution_param {
    num_output: 128
    pad: 0
    kernel_size: 1
    stride: 1
    weight_filler {
      type: "xavier"
    }
    bias_filler {
      type: "constant"
      value: 0
    }
  }
}
layer {
  name: "conv8_1_relu"
  type: "ReLU"
  bottom: "conv8_1"
  top: "conv8_1"
}
layer {
  name: "conv8_2"
  type: "Convolution"
  bottom: "conv8_1"
  top: "conv8_2"
  param {
    lr_mult: 1
    decay_mult: 1
  }
  param {
    lr_mult: 2
    decay_mult: 0
  }
  convolution_param {
    num_output: 256
    pad: 0
    kernel_size: 3
    stride: 1
    weight_filler {
      type: "xavier"
    }
    bias_filler {
      type: "constant"
      value: 0
    }
  }
}
layer {
  name: "conv8_2_relu"
  type: "ReLU"
  bottom: "conv8_2"
  top: "conv8_2"
}
layer {
  name: "conv9_1"
  type: "Convolution"
  bottom: "conv8_2"
  top: "conv9_1"
  param {
    lr_mult: 1
    decay_mult: 1
  }
  param {
    lr_mult: 2
    decay_mult: 0
  }
  convolution_param {
    num_output: 128
    pad: 0
    kernel_size: 1
    stride: 1
    weight_filler {
      type: "xavier"
    }
    bias_filler {
      type: "constant"
      value: 0
    }
  }
}
layer {
  name: "conv9_1_relu"
  type: "ReLU"
  bottom: "conv9_1"
  top: "conv9_1"
}
layer {
  name: "conv9_2"
  type: "Convolution"
  bottom: "conv9_1"
  top: "conv9_2"
  param {
    lr_mult: 1
    decay_mult: 1
  }
  param {
    lr_mult: 2
    decay_mult: 0
  }
  convolution_param {
    num_output: 256
    pad: 0
    kernel_size: 3
    stride: 1
    weight_filler {
      type: "xavier"
    }
    bias_filler {
      type: "constant"
      value: 0
    }
  }
}
layer {
  name: "conv9_2_relu"
  type: "ReLU"
  bottom: "conv9_2"
  top: "conv9_2"
}
layer {
  name: "conv4_3_norm"
  type: "Normalize"
  bottom: "conv4_3"
  top: "conv4_3_norm"
  norm_param {
    across_spatial: false
    scale_filler {
      type: "constant"
      value: 20
    }
    channel_shared: false
  }
}
layer {
  name: "conv4_3_norm_mbox_loc"
  type: "Convolution"
  bottom: "conv4_3_norm"
  top: "conv4_3_norm_mbox_loc"
  param {
    lr_mult: 1
    decay_mult: 1
  }
  param {
    lr_mult: 2
    decay_mult: 0
  }
  convolution_param {
    num_output: 16
    pad: 1
    kernel_size: 3
    stride: 1
    weight_filler {
      type: "xavier"
    }
    bias_filler {
      type: "constant"
      value: 0
    }
  }
}
layer {
  name: "conv4_3_norm_mbox_loc_perm"
  type: "Permute"
  bottom: "conv4_3_norm_mbox_loc"
  top: "conv4_3_norm_mbox_loc_perm"
  permute_param {
    order: 0
    order: 2
    order: 3
    order: 1
  }
}
layer {
  name: "conv4_3_norm_mbox_loc_flat"
  type: "Flatten"
  bottom: "conv4_3_norm_mbox_loc_perm"
  top: "conv4_3_norm_mbox_loc_flat"
  flatten_param {
    axis: 1
  }
}
layer {
  name: "conv4_3_norm_mbox_conf"
  type: "Convolution"
  bottom: "conv4_3_norm"
  top: "conv4_3_norm_mbox_conf"
  param {
    lr_mult: 1
    decay_mult: 1
  }
  param {
    lr_mult: 2
    decay_mult: 0
  }
  convolution_param {
    num_output: 84
    pad: 1
    kernel_size: 3
    stride: 1
    weight_filler {
      type: "xavier"
    }
    bias_filler {
      type: "constant"
      value: 0
    }
  }
}
layer {
  name: "conv4_3_norm_mbox_conf_perm"
  type: "Permute"
  bottom: "conv4_3_norm_mbox_conf"
  top: "conv4_3_norm_mbox_conf_perm"
  permute_param {
    order: 0
    order: 2
    order: 3
    order: 1
  }
}
layer {
  name: "conv4_3_norm_mbox_conf_flat"
  type: "Flatten"
  bottom: "conv4_3_norm_mbox_conf_perm"
  top: "conv4_3_norm_mbox_conf_flat"
  flatten_param {
    axis: 1
  }
}
layer {
  name: "conv4_3_norm_mbox_priorbox"
  type: "PriorBox"
  bottom: "conv4_3_norm"
  bottom: "data"
  top: "conv4_3_norm_mbox_priorbox"
  prior_box_param {
    min_size: 30
    max_size: 60
    aspect_ratio: 2
    flip: true
    clip: false
    variance: 0.1
    variance: 0.1
    variance: 0.2
    variance: 0.2
    step: 8
    offset: 0.5
  }
}
layer {
  name: "fc7_mbox_loc"
  type: "Convolution"
  bottom: "fc7"
  top: "fc7_mbox_loc"
  param {
    lr_mult: 1
    decay_mult: 1
  }
  param {
    lr_mult: 2
    decay_mult: 0
  }
  convolution_param {
    num_output: 24
    pad: 1
    kernel_size: 3
    stride: 1
    weight_filler {
      type: "xavier"
    }
    bias_filler {
      type: "constant"
      value: 0
    }
  }
}
layer {
  name: "fc7_mbox_loc_perm"
  type: "Permute"
  bottom: "fc7_mbox_loc"
  top: "fc7_mbox_loc_perm"
  permute_param {
    order: 0
    order: 2
    order: 3
    order: 1
  }
}
layer {
  name: "fc7_mbox_loc_flat"
  type: "Flatten"
  bottom: "fc7_mbox_loc_perm"
  top: "fc7_mbox_loc_flat"
  flatten_param {
    axis: 1
  }
}
layer {
  name: "fc7_mbox_conf"
  type: "Convolution"
  bottom: "fc7"
  top: "fc7_mbox_conf"
  param {
    lr_mult: 1
    decay_mult: 1
  }
  param {
    lr_mult: 2
    decay_mult: 0
  }
  convolution_param {
    num_output: 126
    pad: 1
    kernel_size: 3
    stride: 1
    weight_filler {
      type: "xavier"
    }
    bias_filler {
      type: "constant"
      value: 0
    }
  }
}
layer {
  name: "fc7_mbox_conf_perm"
  type: "Permute"
  bottom: "fc7_mbox_conf"
  top: "fc7_mbox_conf_perm"
  permute_param {
    order: 0
    order: 2
    order: 3
    order: 1
  }
}
layer {
  name: "fc7_mbox_conf_flat"
  type: "Flatten"
  bottom: "fc7_mbox_conf_perm"
  top: "fc7_mbox_conf_flat"
  flatten_param {
    axis: 1
  }
}
layer {
  name: "fc7_mbox_priorbox"
  type: "PriorBox"
  bottom: "fc7"
  bottom: "data"
  top: "fc7_mbox_priorbox"
  prior_box_param {
    min_size: 60
    max_size: 111
    aspect_ratio: 2
    aspect_ratio: 3
    flip: true
    clip: false
    variance: 0.1
    variance: 0.1
    variance: 0.2
    variance: 0.2
    step: 16
    offset: 0.5
  }
}
layer {
  name: "conv6_2_mbox_loc"
  type: "Convolution"
  bottom: "conv6_2"
  top: "conv6_2_mbox_loc"
  param {
    lr_mult: 1
    decay_mult: 1
  }
  param {
    lr_mult: 2
    decay_mult: 0
  }
  convolution_param {
    num_output: 24
    pad: 1
    kernel_size: 3
    stride: 1
    weight_filler {
      type: "xavier"
    }
    bias_filler {
      type: "constant"
      value: 0
    }
  }
}
layer {
  name: "conv6_2_mbox_loc_perm"
  type: "Permute"
  bottom: "conv6_2_mbox_loc"
  top: "conv6_2_mbox_loc_perm"
  permute_param {
    order: 0
    order: 2
    order: 3
    order: 1
  }
}
layer {
  name: "conv6_2_mbox_loc_flat"
  type: "Flatten"
  bottom: "conv6_2_mbox_loc_perm"
  top: "conv6_2_mbox_loc_flat"
  flatten_param {
    axis: 1
  }
}
layer {
  name: "conv6_2_mbox_conf"
  type: "Convolution"
  bottom: "conv6_2"
  top: "conv6_2_mbox_conf"
  param {
    lr_mult: 1
    decay_mult: 1
  }
  param {
    lr_mult: 2
    decay_mult: 0
  }
  convolution_param {
    num_output: 126
    pad: 1
    kernel_size: 3
    stride: 1
    weight_filler {
      type: "xavier"
    }
    bias_filler {
      type: "constant"
      value: 0
    }
  }
}
layer {
  name: "conv6_2_mbox_conf_perm"
  type: "Permute"
  bottom: "conv6_2_mbox_conf"
  top: "conv6_2_mbox_conf_perm"
  permute_param {
    order: 0
    order: 2
    order: 3
    order: 1
  }
}
layer {
  name: "conv6_2_mbox_conf_flat"
  type: "Flatten"
  bottom: "conv6_2_mbox_conf_perm"
  top: "conv6_2_mbox_conf_flat"
  flatten_param {
    axis: 1
  }
}
layer {
  name: "conv6_2_mbox_priorbox"
  type: "PriorBox"
  bottom: "conv6_2"
  bottom: "data"
  top: "conv6_2_mbox_priorbox"
  prior_box_param {
    min_size: 111
    max_size: 162
    aspect_ratio: 2
    aspect_ratio: 3
    flip: true
    clip: false
    variance: 0.1
    variance: 0.1
    variance: 0.2
    variance: 0.2
    step: 32
    offset: 0.5
  }
}
layer {
  name: "conv7_2_mbox_loc"
  type: "Convolution"
  bottom: "conv7_2"
  top: "conv7_2_mbox_loc"
  param {
    lr_mult: 1
    decay_mult: 1
  }
  param {
    lr_mult: 2
    decay_mult: 0
  }
  convolution_param {
    num_output: 24
    pad: 1
    kernel_size: 3
    stride: 1
    weight_filler {
      type: "xavier"
    }
    bias_filler {
      type: "constant"
      value: 0
    }
  }
}
layer {
  name: "conv7_2_mbox_loc_perm"
  type: "Permute"
  bottom: "conv7_2_mbox_loc"
  top: "conv7_2_mbox_loc_perm"
  permute_param {
    order: 0
    order: 2
    order: 3
    order: 1
  }
}
layer {
  name: "conv7_2_mbox_loc_flat"
  type: "Flatten"
  bottom: "conv7_2_mbox_loc_perm"
  top: "conv7_2_mbox_loc_flat"
  flatten_param {
    axis: 1
  }
}
layer {
  name: "conv7_2_mbox_conf"
  type: "Convolution"
  bottom: "conv7_2"
  top: "conv7_2_mbox_conf"
  param {
    lr_mult: 1
    decay_mult: 1
  }
  param {
    lr_mult: 2
    decay_mult: 0
  }
  convolution_param {
    num_output: 126
    pad: 1
    kernel_size: 3
    stride: 1
    weight_filler {
      type: "xavier"
    }
    bias_filler {
      type: "constant"
      value: 0
    }
  }
}
layer {
  name: "conv7_2_mbox_conf_perm"
  type: "Permute"
  bottom: "conv7_2_mbox_conf"
  top: "conv7_2_mbox_conf_perm"
  permute_param {
    order: 0
    order: 2
    order: 3
    order: 1
  }
}
layer {
  name: "conv7_2_mbox_conf_flat"
  type: "Flatten"
  bottom: "conv7_2_mbox_conf_perm"
  top: "conv7_2_mbox_conf_flat"
  flatten_param {
    axis: 1
  }
}
layer {
  name: "conv7_2_mbox_priorbox"
  type: "PriorBox"
  bottom: "conv7_2"
  bottom: "data"
  top: "conv7_2_mbox_priorbox"
  prior_box_param {
    min_size: 162
    max_size: 213
    aspect_ratio: 2
    aspect_ratio: 3
    flip: true
    clip: false
    variance: 0.1
    variance: 0.1
    variance: 0.2
    variance: 0.2
    step: 64
    offset: 0.5
  }
}
layer {
  name: "conv8_2_mbox_loc"
  type: "Convolution"
  bottom: "conv8_2"
  top: "conv8_2_mbox_loc"
  param {
    lr_mult: 1
    decay_mult: 1
  }
  param {
    lr_mult: 2
    decay_mult: 0
  }
  convolution_param {
    num_output: 16
    pad: 1
    kernel_size: 3
    stride: 1
    weight_filler {
      type: "xavier"
    }
    bias_filler {
      type: "constant"
      value: 0
    }
  }
}
layer {
  name: "conv8_2_mbox_loc_perm"
  type: "Permute"
  bottom: "conv8_2_mbox_loc"
  top: "conv8_2_mbox_loc_perm"
  permute_param {
    order: 0
    order: 2
    order: 3
    order: 1
  }
}
layer {
  name: "conv8_2_mbox_loc_flat"
  type: "Flatten"
  bottom: "conv8_2_mbox_loc_perm"
  top: "conv8_2_mbox_loc_flat"
  flatten_param {
    axis: 1
  }
}
layer {
  name: "conv8_2_mbox_conf"
  type: "Convolution"
  bottom: "conv8_2"
  top: "conv8_2_mbox_conf"
  param {
    lr_mult: 1
    decay_mult: 1
  }
  param {
    lr_mult: 2
    decay_mult: 0
  }
  convolution_param {
    num_output: 84
    pad: 1
    kernel_size: 3
    stride: 1
    weight_filler {
      type: "xavier"
    }
    bias_filler {
      type: "constant"
      value: 0
    }
  }
}
layer {
  name: "conv8_2_mbox_conf_perm"
  type: "Permute"
  bottom: "conv8_2_mbox_conf"
  top: "conv8_2_mbox_conf_perm"
  permute_param {
    order: 0
    order: 2
    order: 3
    order: 1
  }
}
layer {
  name: "conv8_2_mbox_conf_flat"
  type: "Flatten"
  bottom: "conv8_2_mbox_conf_perm"
  top: "conv8_2_mbox_conf_flat"
  flatten_param {
    axis: 1
  }
}
layer {
  name: "conv8_2_mbox_priorbox"
  type: "PriorBox"
  bottom: "conv8_2"
  bottom: "data"
  top: "conv8_2_mbox_priorbox"
  prior_box_param {
    min_size: 213
    max_size: 264
    aspect_ratio: 2
    flip: true
    clip: false
    variance: 0.1
    variance: 0.1
    variance: 0.2
    variance: 0.2
    step: 100
    offset: 0.5
  }
}
layer {
  name: "conv9_2_mbox_loc"
  type: "Convolution"
  bottom: "conv9_2"
  top: "conv9_2_mbox_loc"
  param {
    lr_mult: 1
    decay_mult: 1
  }
  param {
    lr_mult: 2
    decay_mult: 0
  }
  convolution_param {
    num_output: 16
    pad: 1
    kernel_size: 3
    stride: 1
    weight_filler {
      type: "xavier"
    }
    bias_filler {
      type: "constant"
      value: 0
    }
  }
}
layer {
  name: "conv9_2_mbox_loc_perm"
  type: "Permute"
  bottom: "conv9_2_mbox_loc"
  top: "conv9_2_mbox_loc_perm"
  permute_param {
    order: 0
    order: 2
    order: 3
    order: 1
  }
}
layer {
  name: "conv9_2_mbox_loc_flat"
  type: "Flatten"
  bottom: "conv9_2_mbox_loc_perm"
  top: "conv9_2_mbox_loc_flat"
  flatten_param {
    axis: 1
  }
}
layer {
  name: "conv9_2_mbox_conf"
  type: "Convolution"
  bottom: "conv9_2"
  top: "conv9_2_mbox_conf"
  param {
    lr_mult: 1
    decay_mult: 1
  }
  param {
    lr_mult: 2
    decay_mult: 0
  }
  convolution_param {
    num_output: 84
    pad: 1
    kernel_size: 3
    stride: 1
    weight_filler {
      type: "xavier"
    }
    bias_filler {
      type: "constant"
      value: 0
    }
  }
}
layer {
  name: "conv9_2_mbox_conf_perm"
  type: "Permute"
  bottom: "conv9_2_mbox_conf"
  top: "conv9_2_mbox_conf_perm"
  permute_param {
    order: 0
    order: 2
    order: 3
    order: 1
  }
}
layer {
  name: "conv9_2_mbox_conf_flat"
  type: "Flatten"
  bottom: "conv9_2_mbox_conf_perm"
  top: "conv9_2_mbox_conf_flat"
  flatten_param {
    axis: 1
  }
}
layer {
  name: "conv9_2_mbox_priorbox"
  type: "PriorBox"
  bottom: "conv9_2"
  bottom: "data"
  top: "conv9_2_mbox_priorbox"
  prior_box_param {
    min_size: 264
    max_size: 315
    aspect_ratio: 2
    flip: true
    clip: false
    variance: 0.1
    variance: 0.1
    variance: 0.2
    variance: 0.2
    step: 300
    offset: 0.5
  }
}
layer {
  name: "mbox_loc"
  type: "Concat"
  bottom: "conv4_3_norm_mbox_loc_flat"
  bottom: "fc7_mbox_loc_flat"
  bottom: "conv6_2_mbox_loc_flat"
  bottom: "conv7_2_mbox_loc_flat"
  bottom: "conv8_2_mbox_loc_flat"
  bottom: "conv9_2_mbox_loc_flat"
  top: "mbox_loc"
  concat_param {
    axis: 1
  }
}
layer {
  name: "mbox_conf"
  type: "Concat"
  bottom: "conv4_3_norm_mbox_conf_flat"
  bottom: "fc7_mbox_conf_flat"
  bottom: "conv6_2_mbox_conf_flat"
  bottom: "conv7_2_mbox_conf_flat"
  bottom: "conv8_2_mbox_conf_flat"
  bottom: "conv9_2_mbox_conf_flat"
  top: "mbox_conf"
  concat_param {
    axis: 1
  }
}
layer {
  name: "mbox_priorbox"
  type: "Concat"
  bottom: "conv4_3_norm_mbox_priorbox"
  bottom: "fc7_mbox_priorbox"
  bottom: "conv6_2_mbox_priorbox"
  bottom: "conv7_2_mbox_priorbox"
  bottom: "conv8_2_mbox_priorbox"
  bottom: "conv9_2_mbox_priorbox"
  top: "mbox_priorbox"
  concat_param {
    axis: 2
  }
}
layer {
  name: "mbox_loss"
  type: "MultiBoxLoss"
  bottom: "mbox_loc"
  bottom: "mbox_conf"
  bottom: "mbox_priorbox"
  bottom: "label"
  top: "mbox_loss"
  include {
    phase: TRAIN
  }
  propagate_down: true
  propagate_down: true
  propagate_down: false
  propagate_down: false
  loss_param {
    normalization: VALID
  }
  multibox_loss_param {
    loc_loss_type: SMOOTH_L1
    conf_loss_type: SOFTMAX
    loc_weight: 1
    num_classes: 21
    share_location: true
    match_type: PER_PREDICTION
    overlap_threshold: 0.5
    use_prior_for_matching: true
    background_label_id: 0
    use_difficult_gt: true
    neg_pos_ratio: 3
    neg_overlap: 0.5
    code_type: CENTER_SIZE
    ignore_cross_boundary_bbox: false
    mining_type: MAX_NEGATIVE
  }
}
I0719 19:51:23.044085 32432 layer_factory.hpp:77] Creating layer data
I0719 19:51:23.044394 32432 net.cpp:100] Creating Layer data
I0719 19:51:23.044414 32432 net.cpp:408] data -> data
I0719 19:51:23.044451 32432 net.cpp:408] data -> label
I0719 19:51:23.045267 32446 db_lmdb.cpp:35] Opened lmdb examples/VOC0712/VOC0712_trainval_lmdb
I0719 19:51:23.069566 32432 annotated_data_layer.cpp:62] output data size: 24,3,300,300
I0719 19:51:23.133054 32432 net.cpp:150] Setting up data
I0719 19:51:23.133081 32432 net.cpp:157] Top shape: 24 3 300 300 (6480000)
I0719 19:51:23.133085 32432 net.cpp:157] Top shape: 1 1 2 8 (16)
I0719 19:51:23.133087 32432 net.cpp:165] Memory required for data: 25920064
I0719 19:51:23.133123 32432 layer_factory.hpp:77] Creating layer data_data_0_split
I0719 19:51:23.133134 32432 net.cpp:100] Creating Layer data_data_0_split
I0719 19:51:23.133141 32432 net.cpp:434] data_data_0_split <- data
I0719 19:51:23.133155 32432 net.cpp:408] data_data_0_split -> data_data_0_split_0
I0719 19:51:23.133163 32432 net.cpp:408] data_data_0_split -> data_data_0_split_1
I0719 19:51:23.133167 32432 net.cpp:408] data_data_0_split -> data_data_0_split_2
I0719 19:51:23.133172 32432 net.cpp:408] data_data_0_split -> data_data_0_split_3
I0719 19:51:23.133175 32432 net.cpp:408] data_data_0_split -> data_data_0_split_4
I0719 19:51:23.133179 32432 net.cpp:408] data_data_0_split -> data_data_0_split_5
I0719 19:51:23.133183 32432 net.cpp:408] data_data_0_split -> data_data_0_split_6
I0719 19:51:23.133249 32432 net.cpp:150] Setting up data_data_0_split
I0719 19:51:23.133253 32432 net.cpp:157] Top shape: 24 3 300 300 (6480000)
I0719 19:51:23.133255 32432 net.cpp:157] Top shape: 24 3 300 300 (6480000)
I0719 19:51:23.133258 32432 net.cpp:157] Top shape: 24 3 300 300 (6480000)
I0719 19:51:23.133260 32432 net.cpp:157] Top shape: 24 3 300 300 (6480000)
I0719 19:51:23.133262 32432 net.cpp:157] Top shape: 24 3 300 300 (6480000)
I0719 19:51:23.133265 32432 net.cpp:157] Top shape: 24 3 300 300 (6480000)
I0719 19:51:23.133270 32432 net.cpp:157] Top shape: 24 3 300 300 (6480000)
I0719 19:51:23.133271 32432 net.cpp:165] Memory required for data: 207360064
I0719 19:51:23.133273 32432 layer_factory.hpp:77] Creating layer conv1_1
I0719 19:51:23.133285 32432 net.cpp:100] Creating Layer conv1_1
I0719 19:51:23.133287 32432 net.cpp:434] conv1_1 <- data_data_0_split_0
I0719 19:51:23.133292 32432 net.cpp:408] conv1_1 -> conv1_1
I0719 19:51:23.133472 32432 net.cpp:150] Setting up conv1_1
I0719 19:51:23.133478 32432 net.cpp:157] Top shape: 24 64 300 300 (138240000)
I0719 19:51:23.133481 32432 net.cpp:165] Memory required for data: 760320064
I0719 19:51:23.133489 32432 layer_factory.hpp:77] Creating layer relu1_1
I0719 19:51:23.133493 32432 net.cpp:100] Creating Layer relu1_1
I0719 19:51:23.133496 32432 net.cpp:434] relu1_1 <- conv1_1
I0719 19:51:23.133498 32432 net.cpp:395] relu1_1 -> conv1_1 (in-place)
I0719 19:51:23.133503 32432 net.cpp:150] Setting up relu1_1
I0719 19:51:23.133505 32432 net.cpp:157] Top shape: 24 64 300 300 (138240000)
I0719 19:51:23.133507 32432 net.cpp:165] Memory required for data: 1313280064
I0719 19:51:23.133509 32432 layer_factory.hpp:77] Creating layer conv1_2
I0719 19:51:23.133515 32432 net.cpp:100] Creating Layer conv1_2
I0719 19:51:23.133518 32432 net.cpp:434] conv1_2 <- conv1_1
I0719 19:51:23.133523 32432 net.cpp:408] conv1_2 -> conv1_2
I0719 19:51:23.133785 32432 net.cpp:150] Setting up conv1_2
I0719 19:51:23.133790 32432 net.cpp:157] Top shape: 24 64 300 300 (138240000)
I0719 19:51:23.133793 32432 net.cpp:165] Memory required for data: 1866240064
I0719 19:51:23.133797 32432 layer_factory.hpp:77] Creating layer relu1_2
I0719 19:51:23.133800 32432 net.cpp:100] Creating Layer relu1_2
I0719 19:51:23.133803 32432 net.cpp:434] relu1_2 <- conv1_2
I0719 19:51:23.133807 32432 net.cpp:395] relu1_2 -> conv1_2 (in-place)
I0719 19:51:23.133810 32432 net.cpp:150] Setting up relu1_2
I0719 19:51:23.133813 32432 net.cpp:157] Top shape: 24 64 300 300 (138240000)
I0719 19:51:23.133816 32432 net.cpp:165] Memory required for data: 2419200064
I0719 19:51:23.133817 32432 layer_factory.hpp:77] Creating layer pool1
I0719 19:51:23.133821 32432 net.cpp:100] Creating Layer pool1
I0719 19:51:23.133822 32432 net.cpp:434] pool1 <- conv1_2
I0719 19:51:23.133826 32432 net.cpp:408] pool1 -> pool1
I0719 19:51:23.133853 32432 net.cpp:150] Setting up pool1
I0719 19:51:23.133857 32432 net.cpp:157] Top shape: 24 64 150 150 (34560000)
I0719 19:51:23.133859 32432 net.cpp:165] Memory required for data: 2557440064
I0719 19:51:23.133862 32432 layer_factory.hpp:77] Creating layer conv2_1
I0719 19:51:23.133867 32432 net.cpp:100] Creating Layer conv2_1
I0719 19:51:23.133868 32432 net.cpp:434] conv2_1 <- pool1
I0719 19:51:23.133883 32432 net.cpp:408] conv2_1 -> conv2_1
I0719 19:51:23.134225 32432 net.cpp:150] Setting up conv2_1
I0719 19:51:23.134230 32432 net.cpp:157] Top shape: 24 128 150 150 (69120000)
I0719 19:51:23.134232 32432 net.cpp:165] Memory required for data: 2833920064
I0719 19:51:23.134238 32432 layer_factory.hpp:77] Creating layer relu2_1
I0719 19:51:23.134241 32432 net.cpp:100] Creating Layer relu2_1
I0719 19:51:23.134243 32432 net.cpp:434] relu2_1 <- conv2_1
I0719 19:51:23.134246 32432 net.cpp:395] relu2_1 -> conv2_1 (in-place)
I0719 19:51:23.134249 32432 net.cpp:150] Setting up relu2_1
I0719 19:51:23.134253 32432 net.cpp:157] Top shape: 24 128 150 150 (69120000)
I0719 19:51:23.134255 32432 net.cpp:165] Memory required for data: 3110400064
I0719 19:51:23.134256 32432 layer_factory.hpp:77] Creating layer conv2_2
I0719 19:51:23.134260 32432 net.cpp:100] Creating Layer conv2_2
I0719 19:51:23.134263 32432 net.cpp:434] conv2_2 <- conv2_1
I0719 19:51:23.134268 32432 net.cpp:408] conv2_2 -> conv2_2
I0719 19:51:23.134830 32432 net.cpp:150] Setting up conv2_2
I0719 19:51:23.134835 32432 net.cpp:157] Top shape: 24 128 150 150 (69120000)
I0719 19:51:23.134838 32432 net.cpp:165] Memory required for data: 3386880064
I0719 19:51:23.134841 32432 layer_factory.hpp:77] Creating layer relu2_2
I0719 19:51:23.134845 32432 net.cpp:100] Creating Layer relu2_2
I0719 19:51:23.134846 32432 net.cpp:434] relu2_2 <- conv2_2
I0719 19:51:23.134850 32432 net.cpp:395] relu2_2 -> conv2_2 (in-place)
I0719 19:51:23.134852 32432 net.cpp:150] Setting up relu2_2
I0719 19:51:23.134855 32432 net.cpp:157] Top shape: 24 128 150 150 (69120000)
I0719 19:51:23.134856 32432 net.cpp:165] Memory required for data: 3663360064
I0719 19:51:23.134858 32432 layer_factory.hpp:77] Creating layer pool2
I0719 19:51:23.134861 32432 net.cpp:100] Creating Layer pool2
I0719 19:51:23.134865 32432 net.cpp:434] pool2 <- conv2_2
I0719 19:51:23.134866 32432 net.cpp:408] pool2 -> pool2
I0719 19:51:23.134886 32432 net.cpp:150] Setting up pool2
I0719 19:51:23.134889 32432 net.cpp:157] Top shape: 24 128 75 75 (17280000)
I0719 19:51:23.134891 32432 net.cpp:165] Memory required for data: 3732480064
I0719 19:51:23.134892 32432 layer_factory.hpp:77] Creating layer conv3_1
I0719 19:51:23.134897 32432 net.cpp:100] Creating Layer conv3_1
I0719 19:51:23.134899 32432 net.cpp:434] conv3_1 <- pool2
I0719 19:51:23.134903 32432 net.cpp:408] conv3_1 -> conv3_1
I0719 19:51:23.143822 32432 net.cpp:150] Setting up conv3_1
I0719 19:51:23.143841 32432 net.cpp:157] Top shape: 24 256 75 75 (34560000)
I0719 19:51:23.143844 32432 net.cpp:165] Memory required for data: 3870720064
I0719 19:51:23.143855 32432 layer_factory.hpp:77] Creating layer relu3_1
I0719 19:51:23.143862 32432 net.cpp:100] Creating Layer relu3_1
I0719 19:51:23.143865 32432 net.cpp:434] relu3_1 <- conv3_1
I0719 19:51:23.143869 32432 net.cpp:395] relu3_1 -> conv3_1 (in-place)
I0719 19:51:23.143875 32432 net.cpp:150] Setting up relu3_1
I0719 19:51:23.143878 32432 net.cpp:157] Top shape: 24 256 75 75 (34560000)
I0719 19:51:23.143880 32432 net.cpp:165] Memory required for data: 4008960064
I0719 19:51:23.143882 32432 layer_factory.hpp:77] Creating layer conv3_2
I0719 19:51:23.143889 32432 net.cpp:100] Creating Layer conv3_2
I0719 19:51:23.143893 32432 net.cpp:434] conv3_2 <- conv3_1
I0719 19:51:23.143896 32432 net.cpp:408] conv3_2 -> conv3_2
I0719 19:51:23.146420 32432 net.cpp:150] Setting up conv3_2
I0719 19:51:23.146435 32432 net.cpp:157] Top shape: 24 256 75 75 (34560000)
I0719 19:51:23.146437 32432 net.cpp:165] Memory required for data: 4147200064
I0719 19:51:23.146443 32432 layer_factory.hpp:77] Creating layer relu3_2
I0719 19:51:23.146450 32432 net.cpp:100] Creating Layer relu3_2
I0719 19:51:23.146452 32432 net.cpp:434] relu3_2 <- conv3_2
I0719 19:51:23.146456 32432 net.cpp:395] relu3_2 -> conv3_2 (in-place)
I0719 19:51:23.146462 32432 net.cpp:150] Setting up relu3_2
I0719 19:51:23.146466 32432 net.cpp:157] Top shape: 24 256 75 75 (34560000)
I0719 19:51:23.146467 32432 net.cpp:165] Memory required for data: 4285440064
I0719 19:51:23.146469 32432 layer_factory.hpp:77] Creating layer conv3_3
I0719 19:51:23.146492 32432 net.cpp:100] Creating Layer conv3_3
I0719 19:51:23.146494 32432 net.cpp:434] conv3_3 <- conv3_2
I0719 19:51:23.146498 32432 net.cpp:408] conv3_3 -> conv3_3
I0719 19:51:23.149080 32432 net.cpp:150] Setting up conv3_3
I0719 19:51:23.149092 32432 net.cpp:157] Top shape: 24 256 75 75 (34560000)
I0719 19:51:23.149094 32432 net.cpp:165] Memory required for data: 4423680064
I0719 19:51:23.149098 32432 layer_factory.hpp:77] Creating layer relu3_3
I0719 19:51:23.149104 32432 net.cpp:100] Creating Layer relu3_3
I0719 19:51:23.149107 32432 net.cpp:434] relu3_3 <- conv3_3
I0719 19:51:23.149111 32432 net.cpp:395] relu3_3 -> conv3_3 (in-place)
I0719 19:51:23.149116 32432 net.cpp:150] Setting up relu3_3
I0719 19:51:23.149118 32432 net.cpp:157] Top shape: 24 256 75 75 (34560000)
I0719 19:51:23.149121 32432 net.cpp:165] Memory required for data: 4561920064
I0719 19:51:23.149123 32432 layer_factory.hpp:77] Creating layer pool3
I0719 19:51:23.149127 32432 net.cpp:100] Creating Layer pool3
I0719 19:51:23.149133 32432 net.cpp:434] pool3 <- conv3_3
I0719 19:51:23.149137 32432 net.cpp:408] pool3 -> pool3
I0719 19:51:23.149158 32432 net.cpp:150] Setting up pool3
I0719 19:51:23.149163 32432 net.cpp:157] Top shape: 24 256 38 38 (8871936)
I0719 19:51:23.149166 32432 net.cpp:165] Memory required for data: 4597407808
I0719 19:51:23.149168 32432 layer_factory.hpp:77] Creating layer conv4_1
I0719 19:51:23.149174 32432 net.cpp:100] Creating Layer conv4_1
I0719 19:51:23.149176 32432 net.cpp:434] conv4_1 <- pool3
I0719 19:51:23.149180 32432 net.cpp:408] conv4_1 -> conv4_1
I0719 19:51:23.153880 32432 net.cpp:150] Setting up conv4_1
I0719 19:51:23.153898 32432 net.cpp:157] Top shape: 24 512 38 38 (17743872)
I0719 19:51:23.153901 32432 net.cpp:165] Memory required for data: 4668383296
I0719 19:51:23.153906 32432 layer_factory.hpp:77] Creating layer relu4_1
I0719 19:51:23.153913 32432 net.cpp:100] Creating Layer relu4_1
I0719 19:51:23.153916 32432 net.cpp:434] relu4_1 <- conv4_1
I0719 19:51:23.153920 32432 net.cpp:395] relu4_1 -> conv4_1 (in-place)
I0719 19:51:23.153928 32432 net.cpp:150] Setting up relu4_1
I0719 19:51:23.153930 32432 net.cpp:157] Top shape: 24 512 38 38 (17743872)
I0719 19:51:23.153933 32432 net.cpp:165] Memory required for data: 4739358784
I0719 19:51:23.153934 32432 layer_factory.hpp:77] Creating layer conv4_2
I0719 19:51:23.153940 32432 net.cpp:100] Creating Layer conv4_2
I0719 19:51:23.153944 32432 net.cpp:434] conv4_2 <- conv4_1
I0719 19:51:23.153947 32432 net.cpp:408] conv4_2 -> conv4_2
I0719 19:51:23.163341 32432 net.cpp:150] Setting up conv4_2
I0719 19:51:23.163440 32432 net.cpp:157] Top shape: 24 512 38 38 (17743872)
I0719 19:51:23.163475 32432 net.cpp:165] Memory required for data: 4810334272
I0719 19:51:23.163513 32432 layer_factory.hpp:77] Creating layer relu4_2
I0719 19:51:23.163550 32432 net.cpp:100] Creating Layer relu4_2
I0719 19:51:23.163584 32432 net.cpp:434] relu4_2 <- conv4_2
I0719 19:51:23.163624 32432 net.cpp:395] relu4_2 -> conv4_2 (in-place)
I0719 19:51:23.163661 32432 net.cpp:150] Setting up relu4_2
I0719 19:51:23.163692 32432 net.cpp:157] Top shape: 24 512 38 38 (17743872)
I0719 19:51:23.163722 32432 net.cpp:165] Memory required for data: 4881309760
I0719 19:51:23.163753 32432 layer_factory.hpp:77] Creating layer conv4_3
I0719 19:51:23.163790 32432 net.cpp:100] Creating Layer conv4_3
I0719 19:51:23.163823 32432 net.cpp:434] conv4_3 <- conv4_2
I0719 19:51:23.163856 32432 net.cpp:408] conv4_3 -> conv4_3
I0719 19:51:23.173574 32432 net.cpp:150] Setting up conv4_3
I0719 19:51:23.173612 32432 net.cpp:157] Top shape: 24 512 38 38 (17743872)
I0719 19:51:23.173614 32432 net.cpp:165] Memory required for data: 4952285248
I0719 19:51:23.173622 32432 layer_factory.hpp:77] Creating layer relu4_3
I0719 19:51:23.173633 32432 net.cpp:100] Creating Layer relu4_3
I0719 19:51:23.173637 32432 net.cpp:434] relu4_3 <- conv4_3
I0719 19:51:23.173643 32432 net.cpp:395] relu4_3 -> conv4_3 (in-place)
I0719 19:51:23.173655 32432 net.cpp:150] Setting up relu4_3
I0719 19:51:23.173697 32432 net.cpp:157] Top shape: 24 512 38 38 (17743872)
I0719 19:51:23.173699 32432 net.cpp:165] Memory required for data: 5023260736
I0719 19:51:23.173702 32432 layer_factory.hpp:77] Creating layer conv4_3_relu4_3_0_split
I0719 19:51:23.173707 32432 net.cpp:100] Creating Layer conv4_3_relu4_3_0_split
I0719 19:51:23.173709 32432 net.cpp:434] conv4_3_relu4_3_0_split <- conv4_3
I0719 19:51:23.173714 32432 net.cpp:408] conv4_3_relu4_3_0_split -> conv4_3_relu4_3_0_split_0
I0719 19:51:23.173719 32432 net.cpp:408] conv4_3_relu4_3_0_split -> conv4_3_relu4_3_0_split_1
I0719 19:51:23.173748 32432 net.cpp:150] Setting up conv4_3_relu4_3_0_split
I0719 19:51:23.173751 32432 net.cpp:157] Top shape: 24 512 38 38 (17743872)
I0719 19:51:23.173753 32432 net.cpp:157] Top shape: 24 512 38 38 (17743872)
I0719 19:51:23.173755 32432 net.cpp:165] Memory required for data: 5165211712
I0719 19:51:23.173758 32432 layer_factory.hpp:77] Creating layer pool4
I0719 19:51:23.173763 32432 net.cpp:100] Creating Layer pool4
I0719 19:51:23.173765 32432 net.cpp:434] pool4 <- conv4_3_relu4_3_0_split_0
I0719 19:51:23.173769 32432 net.cpp:408] pool4 -> pool4
I0719 19:51:23.173789 32432 net.cpp:150] Setting up pool4
I0719 19:51:23.173794 32432 net.cpp:157] Top shape: 24 512 19 19 (4435968)
I0719 19:51:23.173796 32432 net.cpp:165] Memory required for data: 5182955584
I0719 19:51:23.173799 32432 layer_factory.hpp:77] Creating layer conv5_1
I0719 19:51:23.173807 32432 net.cpp:100] Creating Layer conv5_1
I0719 19:51:23.173810 32432 net.cpp:434] conv5_1 <- pool4
I0719 19:51:23.173815 32432 net.cpp:408] conv5_1 -> conv5_1
I0719 19:51:23.183665 32432 net.cpp:150] Setting up conv5_1
I0719 19:51:23.183691 32432 net.cpp:157] Top shape: 24 512 19 19 (4435968)
I0719 19:51:23.183694 32432 net.cpp:165] Memory required for data: 5200699456
I0719 19:51:23.183701 32432 layer_factory.hpp:77] Creating layer relu5_1
I0719 19:51:23.183707 32432 net.cpp:100] Creating Layer relu5_1
I0719 19:51:23.183710 32432 net.cpp:434] relu5_1 <- conv5_1
I0719 19:51:23.183717 32432 net.cpp:395] relu5_1 -> conv5_1 (in-place)
I0719 19:51:23.183722 32432 net.cpp:150] Setting up relu5_1
I0719 19:51:23.183725 32432 net.cpp:157] Top shape: 24 512 19 19 (4435968)
I0719 19:51:23.183727 32432 net.cpp:165] Memory required for data: 5218443328
I0719 19:51:23.183729 32432 layer_factory.hpp:77] Creating layer conv5_2
I0719 19:51:23.183737 32432 net.cpp:100] Creating Layer conv5_2
I0719 19:51:23.183739 32432 net.cpp:434] conv5_2 <- conv5_1
I0719 19:51:23.183743 32432 net.cpp:408] conv5_2 -> conv5_2
I0719 19:51:23.194047 32432 net.cpp:150] Setting up conv5_2
I0719 19:51:23.194087 32432 net.cpp:157] Top shape: 24 512 19 19 (4435968)
I0719 19:51:23.194088 32432 net.cpp:165] Memory required for data: 5236187200
I0719 19:51:23.194098 32432 layer_factory.hpp:77] Creating layer relu5_2
I0719 19:51:23.194111 32432 net.cpp:100] Creating Layer relu5_2
I0719 19:51:23.194115 32432 net.cpp:434] relu5_2 <- conv5_2
I0719 19:51:23.194121 32432 net.cpp:395] relu5_2 -> conv5_2 (in-place)
I0719 19:51:23.194133 32432 net.cpp:150] Setting up relu5_2
I0719 19:51:23.194136 32432 net.cpp:157] Top shape: 24 512 19 19 (4435968)
I0719 19:51:23.194137 32432 net.cpp:165] Memory required for data: 5253931072
I0719 19:51:23.194139 32432 layer_factory.hpp:77] Creating layer conv5_3
I0719 19:51:23.194154 32432 net.cpp:100] Creating Layer conv5_3
I0719 19:51:23.194156 32432 net.cpp:434] conv5_3 <- conv5_2
I0719 19:51:23.194162 32432 net.cpp:408] conv5_3 -> conv5_3
I0719 19:51:23.205442 32432 net.cpp:150] Setting up conv5_3
I0719 19:51:23.205492 32432 net.cpp:157] Top shape: 24 512 19 19 (4435968)
I0719 19:51:23.205494 32432 net.cpp:165] Memory required for data: 5271674944
I0719 19:51:23.205507 32432 layer_factory.hpp:77] Creating layer relu5_3
I0719 19:51:23.205530 32432 net.cpp:100] Creating Layer relu5_3
I0719 19:51:23.205536 32432 net.cpp:434] relu5_3 <- conv5_3
I0719 19:51:23.205545 32432 net.cpp:395] relu5_3 -> conv5_3 (in-place)
I0719 19:51:23.205556 32432 net.cpp:150] Setting up relu5_3
I0719 19:51:23.205559 32432 net.cpp:157] Top shape: 24 512 19 19 (4435968)
I0719 19:51:23.205590 32432 net.cpp:165] Memory required for data: 5289418816
I0719 19:51:23.205592 32432 layer_factory.hpp:77] Creating layer pool5
I0719 19:51:23.205597 32432 net.cpp:100] Creating Layer pool5
I0719 19:51:23.205600 32432 net.cpp:434] pool5 <- conv5_3
I0719 19:51:23.205605 32432 net.cpp:408] pool5 -> pool5
I0719 19:51:23.205657 32432 net.cpp:150] Setting up pool5
I0719 19:51:23.205662 32432 net.cpp:157] Top shape: 24 512 19 19 (4435968)
I0719 19:51:23.205662 32432 net.cpp:165] Memory required for data: 5307162688
I0719 19:51:23.205664 32432 layer_factory.hpp:77] Creating layer fc6
I0719 19:51:23.205677 32432 net.cpp:100] Creating Layer fc6
I0719 19:51:23.205679 32432 net.cpp:434] fc6 <- pool5
I0719 19:51:23.205683 32432 net.cpp:408] fc6 -> fc6
I0719 19:51:23.229543 32432 net.cpp:150] Setting up fc6
I0719 19:51:23.229595 32432 net.cpp:157] Top shape: 24 1024 19 19 (8871936)
I0719 19:51:23.229598 32432 net.cpp:165] Memory required for data: 5342650432
I0719 19:51:23.229612 32432 layer_factory.hpp:77] Creating layer relu6
I0719 19:51:23.229629 32432 net.cpp:100] Creating Layer relu6
I0719 19:51:23.229636 32432 net.cpp:434] relu6 <- fc6
I0719 19:51:23.229645 32432 net.cpp:395] relu6 -> fc6 (in-place)
I0719 19:51:23.229657 32432 net.cpp:150] Setting up relu6
I0719 19:51:23.229660 32432 net.cpp:157] Top shape: 24 1024 19 19 (8871936)
I0719 19:51:23.229662 32432 net.cpp:165] Memory required for data: 5378138176
I0719 19:51:23.229663 32432 layer_factory.hpp:77] Creating layer fc7
I0719 19:51:23.229677 32432 net.cpp:100] Creating Layer fc7
I0719 19:51:23.229679 32432 net.cpp:434] fc7 <- fc6
I0719 19:51:23.229683 32432 net.cpp:408] fc7 -> fc7
I0719 19:51:23.234274 32432 net.cpp:150] Setting up fc7
I0719 19:51:23.234302 32432 net.cpp:157] Top shape: 24 1024 19 19 (8871936)
I0719 19:51:23.234304 32432 net.cpp:165] Memory required for data: 5413625920
I0719 19:51:23.234310 32432 layer_factory.hpp:77] Creating layer relu7
I0719 19:51:23.234318 32432 net.cpp:100] Creating Layer relu7
I0719 19:51:23.234319 32432 net.cpp:434] relu7 <- fc7
I0719 19:51:23.234324 32432 net.cpp:395] relu7 -> fc7 (in-place)
I0719 19:51:23.234333 32432 net.cpp:150] Setting up relu7
I0719 19:51:23.234335 32432 net.cpp:157] Top shape: 24 1024 19 19 (8871936)
I0719 19:51:23.234336 32432 net.cpp:165] Memory required for data: 5449113664
I0719 19:51:23.234338 32432 layer_factory.hpp:77] Creating layer fc7_relu7_0_split
I0719 19:51:23.234342 32432 net.cpp:100] Creating Layer fc7_relu7_0_split
I0719 19:51:23.234344 32432 net.cpp:434] fc7_relu7_0_split <- fc7
I0719 19:51:23.234347 32432 net.cpp:408] fc7_relu7_0_split -> fc7_relu7_0_split_0
I0719 19:51:23.234354 32432 net.cpp:408] fc7_relu7_0_split -> fc7_relu7_0_split_1
I0719 19:51:23.234362 32432 net.cpp:408] fc7_relu7_0_split -> fc7_relu7_0_split_2
I0719 19:51:23.234366 32432 net.cpp:408] fc7_relu7_0_split -> fc7_relu7_0_split_3
I0719 19:51:23.234407 32432 net.cpp:150] Setting up fc7_relu7_0_split
I0719 19:51:23.234411 32432 net.cpp:157] Top shape: 24 1024 19 19 (8871936)
I0719 19:51:23.234414 32432 net.cpp:157] Top shape: 24 1024 19 19 (8871936)
I0719 19:51:23.234416 32432 net.cpp:157] Top shape: 24 1024 19 19 (8871936)
I0719 19:51:23.234418 32432 net.cpp:157] Top shape: 24 1024 19 19 (8871936)
I0719 19:51:23.234421 32432 net.cpp:165] Memory required for data: 5591064640
I0719 19:51:23.234422 32432 layer_factory.hpp:77] Creating layer conv6_1
I0719 19:51:23.234431 32432 net.cpp:100] Creating Layer conv6_1
I0719 19:51:23.234433 32432 net.cpp:434] conv6_1 <- fc7_relu7_0_split_0
I0719 19:51:23.234438 32432 net.cpp:408] conv6_1 -> conv6_1
I0719 19:51:23.235936 32432 net.cpp:150] Setting up conv6_1
I0719 19:51:23.235954 32432 net.cpp:157] Top shape: 24 256 19 19 (2217984)
I0719 19:51:23.235956 32432 net.cpp:165] Memory required for data: 5599936576
I0719 19:51:23.235962 32432 layer_factory.hpp:77] Creating layer conv6_1_relu
I0719 19:51:23.235970 32432 net.cpp:100] Creating Layer conv6_1_relu
I0719 19:51:23.235972 32432 net.cpp:434] conv6_1_relu <- conv6_1
I0719 19:51:23.236002 32432 net.cpp:395] conv6_1_relu -> conv6_1 (in-place)
I0719 19:51:23.236008 32432 net.cpp:150] Setting up conv6_1_relu
I0719 19:51:23.236012 32432 net.cpp:157] Top shape: 24 256 19 19 (2217984)
I0719 19:51:23.236013 32432 net.cpp:165] Memory required for data: 5608808512
I0719 19:51:23.236016 32432 layer_factory.hpp:77] Creating layer conv6_2
I0719 19:51:23.236025 32432 net.cpp:100] Creating Layer conv6_2
I0719 19:51:23.236028 32432 net.cpp:434] conv6_2 <- conv6_1
I0719 19:51:23.236033 32432 net.cpp:408] conv6_2 -> conv6_2
I0719 19:51:23.241628 32432 net.cpp:150] Setting up conv6_2
I0719 19:51:23.241667 32432 net.cpp:157] Top shape: 24 512 10 10 (1228800)
I0719 19:51:23.241669 32432 net.cpp:165] Memory required for data: 5613723712
I0719 19:51:23.241688 32432 layer_factory.hpp:77] Creating layer conv6_2_relu
I0719 19:51:23.241700 32432 net.cpp:100] Creating Layer conv6_2_relu
I0719 19:51:23.241705 32432 net.cpp:434] conv6_2_relu <- conv6_2
I0719 19:51:23.241714 32432 net.cpp:395] conv6_2_relu -> conv6_2 (in-place)
I0719 19:51:23.241722 32432 net.cpp:150] Setting up conv6_2_relu
I0719 19:51:23.241727 32432 net.cpp:157] Top shape: 24 512 10 10 (1228800)
I0719 19:51:23.241729 32432 net.cpp:165] Memory required for data: 5618638912
I0719 19:51:23.241734 32432 layer_factory.hpp:77] Creating layer conv6_2_conv6_2_relu_0_split
I0719 19:51:23.241737 32432 net.cpp:100] Creating Layer conv6_2_conv6_2_relu_0_split
I0719 19:51:23.241740 32432 net.cpp:434] conv6_2_conv6_2_relu_0_split <- conv6_2
I0719 19:51:23.241744 32432 net.cpp:408] conv6_2_conv6_2_relu_0_split -> conv6_2_conv6_2_relu_0_split_0
I0719 19:51:23.241750 32432 net.cpp:408] conv6_2_conv6_2_relu_0_split -> conv6_2_conv6_2_relu_0_split_1
I0719 19:51:23.241755 32432 net.cpp:408] conv6_2_conv6_2_relu_0_split -> conv6_2_conv6_2_relu_0_split_2
I0719 19:51:23.241760 32432 net.cpp:408] conv6_2_conv6_2_relu_0_split -> conv6_2_conv6_2_relu_0_split_3
I0719 19:51:23.241801 32432 net.cpp:150] Setting up conv6_2_conv6_2_relu_0_split
I0719 19:51:23.241806 32432 net.cpp:157] Top shape: 24 512 10 10 (1228800)
I0719 19:51:23.241808 32432 net.cpp:157] Top shape: 24 512 10 10 (1228800)
I0719 19:51:23.241811 32432 net.cpp:157] Top shape: 24 512 10 10 (1228800)
I0719 19:51:23.241812 32432 net.cpp:157] Top shape: 24 512 10 10 (1228800)
I0719 19:51:23.241816 32432 net.cpp:165] Memory required for data: 5638299712
I0719 19:51:23.241817 32432 layer_factory.hpp:77] Creating layer conv7_1
I0719 19:51:23.241827 32432 net.cpp:100] Creating Layer conv7_1
I0719 19:51:23.241828 32432 net.cpp:434] conv7_1 <- conv6_2_conv6_2_relu_0_split_0
I0719 19:51:23.241834 32432 net.cpp:408] conv7_1 -> conv7_1
I0719 19:51:23.242159 32432 net.cpp:150] Setting up conv7_1
I0719 19:51:23.242164 32432 net.cpp:157] Top shape: 24 128 10 10 (307200)
I0719 19:51:23.242166 32432 net.cpp:165] Memory required for data: 5639528512
I0719 19:51:23.242170 32432 layer_factory.hpp:77] Creating layer conv7_1_relu
I0719 19:51:23.242173 32432 net.cpp:100] Creating Layer conv7_1_relu
I0719 19:51:23.242175 32432 net.cpp:434] conv7_1_relu <- conv7_1
I0719 19:51:23.242177 32432 net.cpp:395] conv7_1_relu -> conv7_1 (in-place)
I0719 19:51:23.242182 32432 net.cpp:150] Setting up conv7_1_relu
I0719 19:51:23.242183 32432 net.cpp:157] Top shape: 24 128 10 10 (307200)
I0719 19:51:23.242185 32432 net.cpp:165] Memory required for data: 5640757312
I0719 19:51:23.242187 32432 layer_factory.hpp:77] Creating layer conv7_2
I0719 19:51:23.242192 32432 net.cpp:100] Creating Layer conv7_2
I0719 19:51:23.242194 32432 net.cpp:434] conv7_2 <- conv7_1
I0719 19:51:23.242198 32432 net.cpp:408] conv7_2 -> conv7_2
I0719 19:51:23.244026 32432 net.cpp:150] Setting up conv7_2
I0719 19:51:23.244055 32432 net.cpp:157] Top shape: 24 256 5 5 (153600)
I0719 19:51:23.244057 32432 net.cpp:165] Memory required for data: 5641371712
I0719 19:51:23.244065 32432 layer_factory.hpp:77] Creating layer conv7_2_relu
I0719 19:51:23.244071 32432 net.cpp:100] Creating Layer conv7_2_relu
I0719 19:51:23.244076 32432 net.cpp:434] conv7_2_relu <- conv7_2
I0719 19:51:23.244083 32432 net.cpp:395] conv7_2_relu -> conv7_2 (in-place)
I0719 19:51:23.244118 32432 net.cpp:150] Setting up conv7_2_relu
I0719 19:51:23.244122 32432 net.cpp:157] Top shape: 24 256 5 5 (153600)
I0719 19:51:23.244124 32432 net.cpp:165] Memory required for data: 5641986112
I0719 19:51:23.244127 32432 layer_factory.hpp:77] Creating layer conv7_2_conv7_2_relu_0_split
I0719 19:51:23.244130 32432 net.cpp:100] Creating Layer conv7_2_conv7_2_relu_0_split
I0719 19:51:23.244132 32432 net.cpp:434] conv7_2_conv7_2_relu_0_split <- conv7_2
I0719 19:51:23.244136 32432 net.cpp:408] conv7_2_conv7_2_relu_0_split -> conv7_2_conv7_2_relu_0_split_0
I0719 19:51:23.244143 32432 net.cpp:408] conv7_2_conv7_2_relu_0_split -> conv7_2_conv7_2_relu_0_split_1
I0719 19:51:23.244148 32432 net.cpp:408] conv7_2_conv7_2_relu_0_split -> conv7_2_conv7_2_relu_0_split_2
I0719 19:51:23.244151 32432 net.cpp:408] conv7_2_conv7_2_relu_0_split -> conv7_2_conv7_2_relu_0_split_3
I0719 19:51:23.244185 32432 net.cpp:150] Setting up conv7_2_conv7_2_relu_0_split
I0719 19:51:23.244189 32432 net.cpp:157] Top shape: 24 256 5 5 (153600)
I0719 19:51:23.244191 32432 net.cpp:157] Top shape: 24 256 5 5 (153600)
I0719 19:51:23.244194 32432 net.cpp:157] Top shape: 24 256 5 5 (153600)
I0719 19:51:23.244196 32432 net.cpp:157] Top shape: 24 256 5 5 (153600)
I0719 19:51:23.244199 32432 net.cpp:165] Memory required for data: 5644443712
I0719 19:51:23.244199 32432 layer_factory.hpp:77] Creating layer conv8_1
I0719 19:51:23.244207 32432 net.cpp:100] Creating Layer conv8_1
I0719 19:51:23.244210 32432 net.cpp:434] conv8_1 <- conv7_2_conv7_2_relu_0_split_0
I0719 19:51:23.244213 32432 net.cpp:408] conv8_1 -> conv8_1
I0719 19:51:23.244437 32432 net.cpp:150] Setting up conv8_1
I0719 19:51:23.244442 32432 net.cpp:157] Top shape: 24 128 5 5 (76800)
I0719 19:51:23.244446 32432 net.cpp:165] Memory required for data: 5644750912
I0719 19:51:23.244448 32432 layer_factory.hpp:77] Creating layer conv8_1_relu
I0719 19:51:23.244451 32432 net.cpp:100] Creating Layer conv8_1_relu
I0719 19:51:23.244453 32432 net.cpp:434] conv8_1_relu <- conv8_1
I0719 19:51:23.244457 32432 net.cpp:395] conv8_1_relu -> conv8_1 (in-place)
I0719 19:51:23.244460 32432 net.cpp:150] Setting up conv8_1_relu
I0719 19:51:23.244463 32432 net.cpp:157] Top shape: 24 128 5 5 (76800)
I0719 19:51:23.244464 32432 net.cpp:165] Memory required for data: 5645058112
I0719 19:51:23.244467 32432 layer_factory.hpp:77] Creating layer conv8_2
I0719 19:51:23.244472 32432 net.cpp:100] Creating Layer conv8_2
I0719 19:51:23.244473 32432 net.cpp:434] conv8_2 <- conv8_1
I0719 19:51:23.244477 32432 net.cpp:408] conv8_2 -> conv8_2
I0719 19:51:23.246187 32432 net.cpp:150] Setting up conv8_2
I0719 19:51:23.246204 32432 net.cpp:157] Top shape: 24 256 3 3 (55296)
I0719 19:51:23.246206 32432 net.cpp:165] Memory required for data: 5645279296
I0719 19:51:23.246210 32432 layer_factory.hpp:77] Creating layer conv8_2_relu
I0719 19:51:23.246215 32432 net.cpp:100] Creating Layer conv8_2_relu
I0719 19:51:23.246217 32432 net.cpp:434] conv8_2_relu <- conv8_2
I0719 19:51:23.246220 32432 net.cpp:395] conv8_2_relu -> conv8_2 (in-place)
I0719 19:51:23.246225 32432 net.cpp:150] Setting up conv8_2_relu
I0719 19:51:23.246228 32432 net.cpp:157] Top shape: 24 256 3 3 (55296)
I0719 19:51:23.246230 32432 net.cpp:165] Memory required for data: 5645500480
I0719 19:51:23.246232 32432 layer_factory.hpp:77] Creating layer conv8_2_conv8_2_relu_0_split
I0719 19:51:23.246235 32432 net.cpp:100] Creating Layer conv8_2_conv8_2_relu_0_split
I0719 19:51:23.246238 32432 net.cpp:434] conv8_2_conv8_2_relu_0_split <- conv8_2
I0719 19:51:23.246243 32432 net.cpp:408] conv8_2_conv8_2_relu_0_split -> conv8_2_conv8_2_relu_0_split_0
I0719 19:51:23.246248 32432 net.cpp:408] conv8_2_conv8_2_relu_0_split -> conv8_2_conv8_2_relu_0_split_1
I0719 19:51:23.246253 32432 net.cpp:408] conv8_2_conv8_2_relu_0_split -> conv8_2_conv8_2_relu_0_split_2
I0719 19:51:23.246256 32432 net.cpp:408] conv8_2_conv8_2_relu_0_split -> conv8_2_conv8_2_relu_0_split_3
I0719 19:51:23.246297 32432 net.cpp:150] Setting up conv8_2_conv8_2_relu_0_split
I0719 19:51:23.246313 32432 net.cpp:157] Top shape: 24 256 3 3 (55296)
I0719 19:51:23.246315 32432 net.cpp:157] Top shape: 24 256 3 3 (55296)
I0719 19:51:23.246318 32432 net.cpp:157] Top shape: 24 256 3 3 (55296)
I0719 19:51:23.246320 32432 net.cpp:157] Top shape: 24 256 3 3 (55296)
I0719 19:51:23.246322 32432 net.cpp:165] Memory required for data: 5646385216
I0719 19:51:23.246325 32432 layer_factory.hpp:77] Creating layer conv9_1
I0719 19:51:23.246330 32432 net.cpp:100] Creating Layer conv9_1
I0719 19:51:23.246332 32432 net.cpp:434] conv9_1 <- conv8_2_conv8_2_relu_0_split_0
I0719 19:51:23.246337 32432 net.cpp:408] conv9_1 -> conv9_1
I0719 19:51:23.246557 32432 net.cpp:150] Setting up conv9_1
I0719 19:51:23.246562 32432 net.cpp:157] Top shape: 24 128 3 3 (27648)
I0719 19:51:23.246564 32432 net.cpp:165] Memory required for data: 5646495808
I0719 19:51:23.246567 32432 layer_factory.hpp:77] Creating layer conv9_1_relu
I0719 19:51:23.246572 32432 net.cpp:100] Creating Layer conv9_1_relu
I0719 19:51:23.246574 32432 net.cpp:434] conv9_1_relu <- conv9_1
I0719 19:51:23.246577 32432 net.cpp:395] conv9_1_relu -> conv9_1 (in-place)
I0719 19:51:23.246579 32432 net.cpp:150] Setting up conv9_1_relu
I0719 19:51:23.246582 32432 net.cpp:157] Top shape: 24 128 3 3 (27648)
I0719 19:51:23.246585 32432 net.cpp:165] Memory required for data: 5646606400
I0719 19:51:23.246587 32432 layer_factory.hpp:77] Creating layer conv9_2
I0719 19:51:23.246592 32432 net.cpp:100] Creating Layer conv9_2
I0719 19:51:23.246593 32432 net.cpp:434] conv9_2 <- conv9_1
I0719 19:51:23.246603 32432 net.cpp:408] conv9_2 -> conv9_2
I0719 19:51:23.248345 32432 net.cpp:150] Setting up conv9_2
I0719 19:51:23.248366 32432 net.cpp:157] Top shape: 24 256 1 1 (6144)
I0719 19:51:23.248368 32432 net.cpp:165] Memory required for data: 5646630976
I0719 19:51:23.248375 32432 layer_factory.hpp:77] Creating layer conv9_2_relu
I0719 19:51:23.248381 32432 net.cpp:100] Creating Layer conv9_2_relu
I0719 19:51:23.248384 32432 net.cpp:434] conv9_2_relu <- conv9_2
I0719 19:51:23.248390 32432 net.cpp:395] conv9_2_relu -> conv9_2 (in-place)
I0719 19:51:23.248399 32432 net.cpp:150] Setting up conv9_2_relu
I0719 19:51:23.248415 32432 net.cpp:157] Top shape: 24 256 1 1 (6144)
I0719 19:51:23.248420 32432 net.cpp:165] Memory required for data: 5646655552
I0719 19:51:23.248421 32432 layer_factory.hpp:77] Creating layer conv9_2_conv9_2_relu_0_split
I0719 19:51:23.248425 32432 net.cpp:100] Creating Layer conv9_2_conv9_2_relu_0_split
I0719 19:51:23.248428 32432 net.cpp:434] conv9_2_conv9_2_relu_0_split <- conv9_2
I0719 19:51:23.248433 32432 net.cpp:408] conv9_2_conv9_2_relu_0_split -> conv9_2_conv9_2_relu_0_split_0
I0719 19:51:23.248437 32432 net.cpp:408] conv9_2_conv9_2_relu_0_split -> conv9_2_conv9_2_relu_0_split_1
I0719 19:51:23.248441 32432 net.cpp:408] conv9_2_conv9_2_relu_0_split -> conv9_2_conv9_2_relu_0_split_2
I0719 19:51:23.248468 32432 net.cpp:150] Setting up conv9_2_conv9_2_relu_0_split
I0719 19:51:23.248472 32432 net.cpp:157] Top shape: 24 256 1 1 (6144)
I0719 19:51:23.248476 32432 net.cpp:157] Top shape: 24 256 1 1 (6144)
I0719 19:51:23.248477 32432 net.cpp:157] Top shape: 24 256 1 1 (6144)
I0719 19:51:23.248481 32432 net.cpp:165] Memory required for data: 5646729280
I0719 19:51:23.248482 32432 layer_factory.hpp:77] Creating layer conv4_3_norm
I0719 19:51:23.248487 32432 net.cpp:100] Creating Layer conv4_3_norm
I0719 19:51:23.248492 32432 net.cpp:434] conv4_3_norm <- conv4_3_relu4_3_0_split_1
I0719 19:51:23.248497 32432 net.cpp:408] conv4_3_norm -> conv4_3_norm
I0719 19:51:23.248577 32432 net.cpp:150] Setting up conv4_3_norm
I0719 19:51:23.248581 32432 net.cpp:157] Top shape: 24 512 38 38 (17743872)
I0719 19:51:23.248584 32432 net.cpp:165] Memory required for data: 5717704768
I0719 19:51:23.248587 32432 layer_factory.hpp:77] Creating layer conv4_3_norm_conv4_3_norm_0_split
I0719 19:51:23.248592 32432 net.cpp:100] Creating Layer conv4_3_norm_conv4_3_norm_0_split
I0719 19:51:23.248594 32432 net.cpp:434] conv4_3_norm_conv4_3_norm_0_split <- conv4_3_norm
I0719 19:51:23.248598 32432 net.cpp:408] conv4_3_norm_conv4_3_norm_0_split -> conv4_3_norm_conv4_3_norm_0_split_0
I0719 19:51:23.248612 32432 net.cpp:408] conv4_3_norm_conv4_3_norm_0_split -> conv4_3_norm_conv4_3_norm_0_split_1
I0719 19:51:23.248616 32432 net.cpp:408] conv4_3_norm_conv4_3_norm_0_split -> conv4_3_norm_conv4_3_norm_0_split_2
I0719 19:51:23.248641 32432 net.cpp:150] Setting up conv4_3_norm_conv4_3_norm_0_split
I0719 19:51:23.248644 32432 net.cpp:157] Top shape: 24 512 38 38 (17743872)
I0719 19:51:23.248647 32432 net.cpp:157] Top shape: 24 512 38 38 (17743872)
I0719 19:51:23.248649 32432 net.cpp:157] Top shape: 24 512 38 38 (17743872)
I0719 19:51:23.248651 32432 net.cpp:165] Memory required for data: 5930631232
I0719 19:51:23.248653 32432 layer_factory.hpp:77] Creating layer conv4_3_norm_mbox_loc
I0719 19:51:23.248661 32432 net.cpp:100] Creating Layer conv4_3_norm_mbox_loc
I0719 19:51:23.248664 32432 net.cpp:434] conv4_3_norm_mbox_loc <- conv4_3_norm_conv4_3_norm_0_split_0
I0719 19:51:23.248668 32432 net.cpp:408] conv4_3_norm_mbox_loc -> conv4_3_norm_mbox_loc
I0719 19:51:23.249037 32432 net.cpp:150] Setting up conv4_3_norm_mbox_loc
I0719 19:51:23.249042 32432 net.cpp:157] Top shape: 24 16 38 38 (554496)
I0719 19:51:23.249043 32432 net.cpp:165] Memory required for data: 5932849216
I0719 19:51:23.249047 32432 layer_factory.hpp:77] Creating layer conv4_3_norm_mbox_loc_perm
I0719 19:51:23.249053 32432 net.cpp:100] Creating Layer conv4_3_norm_mbox_loc_perm
I0719 19:51:23.249055 32432 net.cpp:434] conv4_3_norm_mbox_loc_perm <- conv4_3_norm_mbox_loc
I0719 19:51:23.249058 32432 net.cpp:408] conv4_3_norm_mbox_loc_perm -> conv4_3_norm_mbox_loc_perm
I0719 19:51:23.249117 32432 net.cpp:150] Setting up conv4_3_norm_mbox_loc_perm
I0719 19:51:23.249122 32432 net.cpp:157] Top shape: 24 38 38 16 (554496)
I0719 19:51:23.249125 32432 net.cpp:165] Memory required for data: 5935067200
I0719 19:51:23.249126 32432 layer_factory.hpp:77] Creating layer conv4_3_norm_mbox_loc_flat
I0719 19:51:23.249130 32432 net.cpp:100] Creating Layer conv4_3_norm_mbox_loc_flat
I0719 19:51:23.249133 32432 net.cpp:434] conv4_3_norm_mbox_loc_flat <- conv4_3_norm_mbox_loc_perm
I0719 19:51:23.249138 32432 net.cpp:408] conv4_3_norm_mbox_loc_flat -> conv4_3_norm_mbox_loc_flat
I0719 19:51:23.249159 32432 net.cpp:150] Setting up conv4_3_norm_mbox_loc_flat
I0719 19:51:23.249164 32432 net.cpp:157] Top shape: 24 23104 (554496)
I0719 19:51:23.249167 32432 net.cpp:165] Memory required for data: 5937285184
I0719 19:51:23.249169 32432 layer_factory.hpp:77] Creating layer conv4_3_norm_mbox_conf
I0719 19:51:23.249181 32432 net.cpp:100] Creating Layer conv4_3_norm_mbox_conf
I0719 19:51:23.249183 32432 net.cpp:434] conv4_3_norm_mbox_conf <- conv4_3_norm_conv4_3_norm_0_split_1
I0719 19:51:23.249188 32432 net.cpp:408] conv4_3_norm_mbox_conf -> conv4_3_norm_mbox_conf
I0719 19:51:23.251116 32432 net.cpp:150] Setting up conv4_3_norm_mbox_conf
I0719 19:51:23.251127 32432 net.cpp:157] Top shape: 24 84 38 38 (2911104)
I0719 19:51:23.251128 32432 net.cpp:165] Memory required for data: 5948929600
I0719 19:51:23.251133 32432 layer_factory.hpp:77] Creating layer conv4_3_norm_mbox_conf_perm
I0719 19:51:23.251139 32432 net.cpp:100] Creating Layer conv4_3_norm_mbox_conf_perm
I0719 19:51:23.251142 32432 net.cpp:434] conv4_3_norm_mbox_conf_perm <- conv4_3_norm_mbox_conf
I0719 19:51:23.251147 32432 net.cpp:408] conv4_3_norm_mbox_conf_perm -> conv4_3_norm_mbox_conf_perm
I0719 19:51:23.251195 32432 net.cpp:150] Setting up conv4_3_norm_mbox_conf_perm
I0719 19:51:23.251200 32432 net.cpp:157] Top shape: 24 38 38 84 (2911104)
I0719 19:51:23.251202 32432 net.cpp:165] Memory required for data: 5960574016
I0719 19:51:23.251204 32432 layer_factory.hpp:77] Creating layer conv4_3_norm_mbox_conf_flat
I0719 19:51:23.251207 32432 net.cpp:100] Creating Layer conv4_3_norm_mbox_conf_flat
I0719 19:51:23.251210 32432 net.cpp:434] conv4_3_norm_mbox_conf_flat <- conv4_3_norm_mbox_conf_perm
I0719 19:51:23.251214 32432 net.cpp:408] conv4_3_norm_mbox_conf_flat -> conv4_3_norm_mbox_conf_flat
I0719 19:51:23.251225 32432 net.cpp:150] Setting up conv4_3_norm_mbox_conf_flat
I0719 19:51:23.251237 32432 net.cpp:157] Top shape: 24 121296 (2911104)
I0719 19:51:23.251240 32432 net.cpp:165] Memory required for data: 5972218432
I0719 19:51:23.251242 32432 layer_factory.hpp:77] Creating layer conv4_3_norm_mbox_priorbox
I0719 19:51:23.251246 32432 net.cpp:100] Creating Layer conv4_3_norm_mbox_priorbox
I0719 19:51:23.251250 32432 net.cpp:434] conv4_3_norm_mbox_priorbox <- conv4_3_norm_conv4_3_norm_0_split_2
I0719 19:51:23.251253 32432 net.cpp:434] conv4_3_norm_mbox_priorbox <- data_data_0_split_1
I0719 19:51:23.251257 32432 net.cpp:408] conv4_3_norm_mbox_priorbox -> conv4_3_norm_mbox_priorbox
I0719 19:51:23.251276 32432 net.cpp:150] Setting up conv4_3_norm_mbox_priorbox
I0719 19:51:23.251284 32432 net.cpp:157] Top shape: 1 2 23104 (46208)
I0719 19:51:23.251286 32432 net.cpp:165] Memory required for data: 5972403264
I0719 19:51:23.251288 32432 layer_factory.hpp:77] Creating layer fc7_mbox_loc
I0719 19:51:23.251293 32432 net.cpp:100] Creating Layer fc7_mbox_loc
I0719 19:51:23.251297 32432 net.cpp:434] fc7_mbox_loc <- fc7_relu7_0_split_1
I0719 19:51:23.251302 32432 net.cpp:408] fc7_mbox_loc -> fc7_mbox_loc
I0719 19:51:23.252110 32432 net.cpp:150] Setting up fc7_mbox_loc
I0719 19:51:23.252115 32432 net.cpp:157] Top shape: 24 24 19 19 (207936)
I0719 19:51:23.252117 32432 net.cpp:165] Memory required for data: 5973235008
I0719 19:51:23.252120 32432 layer_factory.hpp:77] Creating layer fc7_mbox_loc_perm
I0719 19:51:23.252125 32432 net.cpp:100] Creating Layer fc7_mbox_loc_perm
I0719 19:51:23.252127 32432 net.cpp:434] fc7_mbox_loc_perm <- fc7_mbox_loc
I0719 19:51:23.252131 32432 net.cpp:408] fc7_mbox_loc_perm -> fc7_mbox_loc_perm
I0719 19:51:23.252179 32432 net.cpp:150] Setting up fc7_mbox_loc_perm
I0719 19:51:23.252184 32432 net.cpp:157] Top shape: 24 19 19 24 (207936)
I0719 19:51:23.252187 32432 net.cpp:165] Memory required for data: 5974066752
I0719 19:51:23.252188 32432 layer_factory.hpp:77] Creating layer fc7_mbox_loc_flat
I0719 19:51:23.252192 32432 net.cpp:100] Creating Layer fc7_mbox_loc_flat
I0719 19:51:23.252194 32432 net.cpp:434] fc7_mbox_loc_flat <- fc7_mbox_loc_perm
I0719 19:51:23.252197 32432 net.cpp:408] fc7_mbox_loc_flat -> fc7_mbox_loc_flat
I0719 19:51:23.252209 32432 net.cpp:150] Setting up fc7_mbox_loc_flat
I0719 19:51:23.252213 32432 net.cpp:157] Top shape: 24 8664 (207936)
I0719 19:51:23.252215 32432 net.cpp:165] Memory required for data: 5974898496
I0719 19:51:23.252216 32432 layer_factory.hpp:77] Creating layer fc7_mbox_conf
I0719 19:51:23.252223 32432 net.cpp:100] Creating Layer fc7_mbox_conf
I0719 19:51:23.252225 32432 net.cpp:434] fc7_mbox_conf <- fc7_relu7_0_split_2
I0719 19:51:23.252233 32432 net.cpp:408] fc7_mbox_conf -> fc7_mbox_conf
I0719 19:51:23.256898 32432 net.cpp:150] Setting up fc7_mbox_conf
I0719 19:51:23.256929 32432 net.cpp:157] Top shape: 24 126 19 19 (1091664)
I0719 19:51:23.256932 32432 net.cpp:165] Memory required for data: 5979265152
I0719 19:51:23.256939 32432 layer_factory.hpp:77] Creating layer fc7_mbox_conf_perm
I0719 19:51:23.256952 32432 net.cpp:100] Creating Layer fc7_mbox_conf_perm
I0719 19:51:23.256958 32432 net.cpp:434] fc7_mbox_conf_perm <- fc7_mbox_conf
I0719 19:51:23.256968 32432 net.cpp:408] fc7_mbox_conf_perm -> fc7_mbox_conf_perm
I0719 19:51:23.257023 32432 net.cpp:150] Setting up fc7_mbox_conf_perm
I0719 19:51:23.257028 32432 net.cpp:157] Top shape: 24 19 19 126 (1091664)
I0719 19:51:23.257030 32432 net.cpp:165] Memory required for data: 5983631808
I0719 19:51:23.257033 32432 layer_factory.hpp:77] Creating layer fc7_mbox_conf_flat
I0719 19:51:23.257041 32432 net.cpp:100] Creating Layer fc7_mbox_conf_flat
I0719 19:51:23.257043 32432 net.cpp:434] fc7_mbox_conf_flat <- fc7_mbox_conf_perm
I0719 19:51:23.257048 32432 net.cpp:408] fc7_mbox_conf_flat -> fc7_mbox_conf_flat
I0719 19:51:23.257061 32432 net.cpp:150] Setting up fc7_mbox_conf_flat
I0719 19:51:23.257064 32432 net.cpp:157] Top shape: 24 45486 (1091664)
I0719 19:51:23.257066 32432 net.cpp:165] Memory required for data: 5987998464
I0719 19:51:23.257068 32432 layer_factory.hpp:77] Creating layer fc7_mbox_priorbox
I0719 19:51:23.257099 32432 net.cpp:100] Creating Layer fc7_mbox_priorbox
I0719 19:51:23.257102 32432 net.cpp:434] fc7_mbox_priorbox <- fc7_relu7_0_split_3
I0719 19:51:23.257107 32432 net.cpp:434] fc7_mbox_priorbox <- data_data_0_split_2
I0719 19:51:23.257114 32432 net.cpp:408] fc7_mbox_priorbox -> fc7_mbox_priorbox
I0719 19:51:23.257129 32432 net.cpp:150] Setting up fc7_mbox_priorbox
I0719 19:51:23.257133 32432 net.cpp:157] Top shape: 1 2 8664 (17328)
I0719 19:51:23.257134 32432 net.cpp:165] Memory required for data: 5988067776
I0719 19:51:23.257138 32432 layer_factory.hpp:77] Creating layer conv6_2_mbox_loc
I0719 19:51:23.257148 32432 net.cpp:100] Creating Layer conv6_2_mbox_loc
I0719 19:51:23.257154 32432 net.cpp:434] conv6_2_mbox_loc <- conv6_2_conv6_2_relu_0_split_1
I0719 19:51:23.257158 32432 net.cpp:408] conv6_2_mbox_loc -> conv6_2_mbox_loc
I0719 19:51:23.257666 32432 net.cpp:150] Setting up conv6_2_mbox_loc
I0719 19:51:23.257671 32432 net.cpp:157] Top shape: 24 24 10 10 (57600)
I0719 19:51:23.257673 32432 net.cpp:165] Memory required for data: 5988298176
I0719 19:51:23.257678 32432 layer_factory.hpp:77] Creating layer conv6_2_mbox_loc_perm
I0719 19:51:23.257683 32432 net.cpp:100] Creating Layer conv6_2_mbox_loc_perm
I0719 19:51:23.257688 32432 net.cpp:434] conv6_2_mbox_loc_perm <- conv6_2_mbox_loc
I0719 19:51:23.257691 32432 net.cpp:408] conv6_2_mbox_loc_perm -> conv6_2_mbox_loc_perm
I0719 19:51:23.257741 32432 net.cpp:150] Setting up conv6_2_mbox_loc_perm
I0719 19:51:23.257746 32432 net.cpp:157] Top shape: 24 10 10 24 (57600)
I0719 19:51:23.257748 32432 net.cpp:165] Memory required for data: 5988528576
I0719 19:51:23.257750 32432 layer_factory.hpp:77] Creating layer conv6_2_mbox_loc_flat
I0719 19:51:23.257755 32432 net.cpp:100] Creating Layer conv6_2_mbox_loc_flat
I0719 19:51:23.257757 32432 net.cpp:434] conv6_2_mbox_loc_flat <- conv6_2_mbox_loc_perm
I0719 19:51:23.257761 32432 net.cpp:408] conv6_2_mbox_loc_flat -> conv6_2_mbox_loc_flat
I0719 19:51:23.257773 32432 net.cpp:150] Setting up conv6_2_mbox_loc_flat
I0719 19:51:23.257776 32432 net.cpp:157] Top shape: 24 2400 (57600)
I0719 19:51:23.257778 32432 net.cpp:165] Memory required for data: 5988758976
I0719 19:51:23.257781 32432 layer_factory.hpp:77] Creating layer conv6_2_mbox_conf
I0719 19:51:23.257789 32432 net.cpp:100] Creating Layer conv6_2_mbox_conf
I0719 19:51:23.257792 32432 net.cpp:434] conv6_2_mbox_conf <- conv6_2_conv6_2_relu_0_split_2
I0719 19:51:23.257797 32432 net.cpp:408] conv6_2_mbox_conf -> conv6_2_mbox_conf
I0719 19:51:23.261088 32432 net.cpp:150] Setting up conv6_2_mbox_conf
I0719 19:51:23.261106 32432 net.cpp:157] Top shape: 24 126 10 10 (302400)
I0719 19:51:23.261109 32432 net.cpp:165] Memory required for data: 5989968576
I0719 19:51:23.261116 32432 layer_factory.hpp:77] Creating layer conv6_2_mbox_conf_perm
I0719 19:51:23.261121 32432 net.cpp:100] Creating Layer conv6_2_mbox_conf_perm
I0719 19:51:23.261124 32432 net.cpp:434] conv6_2_mbox_conf_perm <- conv6_2_mbox_conf
I0719 19:51:23.261129 32432 net.cpp:408] conv6_2_mbox_conf_perm -> conv6_2_mbox_conf_perm
I0719 19:51:23.261189 32432 net.cpp:150] Setting up conv6_2_mbox_conf_perm
I0719 19:51:23.261193 32432 net.cpp:157] Top shape: 24 10 10 126 (302400)
I0719 19:51:23.261195 32432 net.cpp:165] Memory required for data: 5991178176
I0719 19:51:23.261198 32432 layer_factory.hpp:77] Creating layer conv6_2_mbox_conf_flat
I0719 19:51:23.261201 32432 net.cpp:100] Creating Layer conv6_2_mbox_conf_flat
I0719 19:51:23.261204 32432 net.cpp:434] conv6_2_mbox_conf_flat <- conv6_2_mbox_conf_perm
I0719 19:51:23.261207 32432 net.cpp:408] conv6_2_mbox_conf_flat -> conv6_2_mbox_conf_flat
I0719 19:51:23.261220 32432 net.cpp:150] Setting up conv6_2_mbox_conf_flat
I0719 19:51:23.261224 32432 net.cpp:157] Top shape: 24 12600 (302400)
I0719 19:51:23.261225 32432 net.cpp:165] Memory required for data: 5992387776
I0719 19:51:23.261227 32432 layer_factory.hpp:77] Creating layer conv6_2_mbox_priorbox
I0719 19:51:23.261231 32432 net.cpp:100] Creating Layer conv6_2_mbox_priorbox
I0719 19:51:23.261246 32432 net.cpp:434] conv6_2_mbox_priorbox <- conv6_2_conv6_2_relu_0_split_3
I0719 19:51:23.261250 32432 net.cpp:434] conv6_2_mbox_priorbox <- data_data_0_split_3
I0719 19:51:23.261255 32432 net.cpp:408] conv6_2_mbox_priorbox -> conv6_2_mbox_priorbox
I0719 19:51:23.261268 32432 net.cpp:150] Setting up conv6_2_mbox_priorbox
I0719 19:51:23.261272 32432 net.cpp:157] Top shape: 1 2 2400 (4800)
I0719 19:51:23.261274 32432 net.cpp:165] Memory required for data: 5992406976
I0719 19:51:23.261276 32432 layer_factory.hpp:77] Creating layer conv7_2_mbox_loc
I0719 19:51:23.261282 32432 net.cpp:100] Creating Layer conv7_2_mbox_loc
I0719 19:51:23.261286 32432 net.cpp:434] conv7_2_mbox_loc <- conv7_2_conv7_2_relu_0_split_1
I0719 19:51:23.261291 32432 net.cpp:408] conv7_2_mbox_loc -> conv7_2_mbox_loc
I0719 19:51:23.261584 32432 net.cpp:150] Setting up conv7_2_mbox_loc
I0719 19:51:23.261588 32432 net.cpp:157] Top shape: 24 24 5 5 (14400)
I0719 19:51:23.261590 32432 net.cpp:165] Memory required for data: 5992464576
I0719 19:51:23.261595 32432 layer_factory.hpp:77] Creating layer conv7_2_mbox_loc_perm
I0719 19:51:23.261597 32432 net.cpp:100] Creating Layer conv7_2_mbox_loc_perm
I0719 19:51:23.261600 32432 net.cpp:434] conv7_2_mbox_loc_perm <- conv7_2_mbox_loc
I0719 19:51:23.261603 32432 net.cpp:408] conv7_2_mbox_loc_perm -> conv7_2_mbox_loc_perm
I0719 19:51:23.261651 32432 net.cpp:150] Setting up conv7_2_mbox_loc_perm
I0719 19:51:23.261656 32432 net.cpp:157] Top shape: 24 5 5 24 (14400)
I0719 19:51:23.261657 32432 net.cpp:165] Memory required for data: 5992522176
I0719 19:51:23.261659 32432 layer_factory.hpp:77] Creating layer conv7_2_mbox_loc_flat
I0719 19:51:23.261663 32432 net.cpp:100] Creating Layer conv7_2_mbox_loc_flat
I0719 19:51:23.261665 32432 net.cpp:434] conv7_2_mbox_loc_flat <- conv7_2_mbox_loc_perm
I0719 19:51:23.261668 32432 net.cpp:408] conv7_2_mbox_loc_flat -> conv7_2_mbox_loc_flat
I0719 19:51:23.261680 32432 net.cpp:150] Setting up conv7_2_mbox_loc_flat
I0719 19:51:23.261683 32432 net.cpp:157] Top shape: 24 600 (14400)
I0719 19:51:23.261684 32432 net.cpp:165] Memory required for data: 5992579776
I0719 19:51:23.261687 32432 layer_factory.hpp:77] Creating layer conv7_2_mbox_conf
I0719 19:51:23.261693 32432 net.cpp:100] Creating Layer conv7_2_mbox_conf
I0719 19:51:23.261695 32432 net.cpp:434] conv7_2_mbox_conf <- conv7_2_conv7_2_relu_0_split_2
I0719 19:51:23.261703 32432 net.cpp:408] conv7_2_mbox_conf -> conv7_2_mbox_conf
I0719 19:51:23.263208 32432 net.cpp:150] Setting up conv7_2_mbox_conf
I0719 19:51:23.263218 32432 net.cpp:157] Top shape: 24 126 5 5 (75600)
I0719 19:51:23.263221 32432 net.cpp:165] Memory required for data: 5992882176
I0719 19:51:23.263224 32432 layer_factory.hpp:77] Creating layer conv7_2_mbox_conf_perm
I0719 19:51:23.263229 32432 net.cpp:100] Creating Layer conv7_2_mbox_conf_perm
I0719 19:51:23.263232 32432 net.cpp:434] conv7_2_mbox_conf_perm <- conv7_2_mbox_conf
I0719 19:51:23.263236 32432 net.cpp:408] conv7_2_mbox_conf_perm -> conv7_2_mbox_conf_perm
I0719 19:51:23.263285 32432 net.cpp:150] Setting up conv7_2_mbox_conf_perm
I0719 19:51:23.263289 32432 net.cpp:157] Top shape: 24 5 5 126 (75600)
I0719 19:51:23.263291 32432 net.cpp:165] Memory required for data: 5993184576
I0719 19:51:23.263293 32432 layer_factory.hpp:77] Creating layer conv7_2_mbox_conf_flat
I0719 19:51:23.263296 32432 net.cpp:100] Creating Layer conv7_2_mbox_conf_flat
I0719 19:51:23.263298 32432 net.cpp:434] conv7_2_mbox_conf_flat <- conv7_2_mbox_conf_perm
I0719 19:51:23.263303 32432 net.cpp:408] conv7_2_mbox_conf_flat -> conv7_2_mbox_conf_flat
I0719 19:51:23.263315 32432 net.cpp:150] Setting up conv7_2_mbox_conf_flat
I0719 19:51:23.263319 32432 net.cpp:157] Top shape: 24 3150 (75600)
I0719 19:51:23.263319 32432 net.cpp:165] Memory required for data: 5993486976
I0719 19:51:23.263322 32432 layer_factory.hpp:77] Creating layer conv7_2_mbox_priorbox
I0719 19:51:23.263325 32432 net.cpp:100] Creating Layer conv7_2_mbox_priorbox
I0719 19:51:23.263327 32432 net.cpp:434] conv7_2_mbox_priorbox <- conv7_2_conv7_2_relu_0_split_3
I0719 19:51:23.263339 32432 net.cpp:434] conv7_2_mbox_priorbox <- data_data_0_split_4
I0719 19:51:23.263343 32432 net.cpp:408] conv7_2_mbox_priorbox -> conv7_2_mbox_priorbox
I0719 19:51:23.263358 32432 net.cpp:150] Setting up conv7_2_mbox_priorbox
I0719 19:51:23.263361 32432 net.cpp:157] Top shape: 1 2 600 (1200)
I0719 19:51:23.263363 32432 net.cpp:165] Memory required for data: 5993491776
I0719 19:51:23.263370 32432 layer_factory.hpp:77] Creating layer conv8_2_mbox_loc
I0719 19:51:23.263375 32432 net.cpp:100] Creating Layer conv8_2_mbox_loc
I0719 19:51:23.263376 32432 net.cpp:434] conv8_2_mbox_loc <- conv8_2_conv8_2_relu_0_split_1
I0719 19:51:23.263381 32432 net.cpp:408] conv8_2_mbox_loc -> conv8_2_mbox_loc
I0719 19:51:23.263629 32432 net.cpp:150] Setting up conv8_2_mbox_loc
I0719 19:51:23.263634 32432 net.cpp:157] Top shape: 24 16 3 3 (3456)
I0719 19:51:23.263636 32432 net.cpp:165] Memory required for data: 5993505600
I0719 19:51:23.263645 32432 layer_factory.hpp:77] Creating layer conv8_2_mbox_loc_perm
I0719 19:51:23.263650 32432 net.cpp:100] Creating Layer conv8_2_mbox_loc_perm
I0719 19:51:23.263653 32432 net.cpp:434] conv8_2_mbox_loc_perm <- conv8_2_mbox_loc
I0719 19:51:23.263656 32432 net.cpp:408] conv8_2_mbox_loc_perm -> conv8_2_mbox_loc_perm
I0719 19:51:23.263710 32432 net.cpp:150] Setting up conv8_2_mbox_loc_perm
I0719 19:51:23.263713 32432 net.cpp:157] Top shape: 24 3 3 16 (3456)
I0719 19:51:23.263715 32432 net.cpp:165] Memory required for data: 5993519424
I0719 19:51:23.263717 32432 layer_factory.hpp:77] Creating layer conv8_2_mbox_loc_flat
I0719 19:51:23.263721 32432 net.cpp:100] Creating Layer conv8_2_mbox_loc_flat
I0719 19:51:23.263725 32432 net.cpp:434] conv8_2_mbox_loc_flat <- conv8_2_mbox_loc_perm
I0719 19:51:23.263729 32432 net.cpp:408] conv8_2_mbox_loc_flat -> conv8_2_mbox_loc_flat
I0719 19:51:23.263741 32432 net.cpp:150] Setting up conv8_2_mbox_loc_flat
I0719 19:51:23.263746 32432 net.cpp:157] Top shape: 24 144 (3456)
I0719 19:51:23.263747 32432 net.cpp:165] Memory required for data: 5993533248
I0719 19:51:23.263749 32432 layer_factory.hpp:77] Creating layer conv8_2_mbox_conf
I0719 19:51:23.263756 32432 net.cpp:100] Creating Layer conv8_2_mbox_conf
I0719 19:51:23.263758 32432 net.cpp:434] conv8_2_mbox_conf <- conv8_2_conv8_2_relu_0_split_2
I0719 19:51:23.263761 32432 net.cpp:408] conv8_2_mbox_conf -> conv8_2_mbox_conf
I0719 19:51:23.264485 32432 net.cpp:150] Setting up conv8_2_mbox_conf
I0719 19:51:23.264490 32432 net.cpp:157] Top shape: 24 84 3 3 (18144)
I0719 19:51:23.264492 32432 net.cpp:165] Memory required for data: 5993605824
I0719 19:51:23.264497 32432 layer_factory.hpp:77] Creating layer conv8_2_mbox_conf_perm
I0719 19:51:23.264501 32432 net.cpp:100] Creating Layer conv8_2_mbox_conf_perm
I0719 19:51:23.264504 32432 net.cpp:434] conv8_2_mbox_conf_perm <- conv8_2_mbox_conf
I0719 19:51:23.264508 32432 net.cpp:408] conv8_2_mbox_conf_perm -> conv8_2_mbox_conf_perm
I0719 19:51:23.264555 32432 net.cpp:150] Setting up conv8_2_mbox_conf_perm
I0719 19:51:23.264559 32432 net.cpp:157] Top shape: 24 3 3 84 (18144)
I0719 19:51:23.264561 32432 net.cpp:165] Memory required for data: 5993678400
I0719 19:51:23.264564 32432 layer_factory.hpp:77] Creating layer conv8_2_mbox_conf_flat
I0719 19:51:23.264566 32432 net.cpp:100] Creating Layer conv8_2_mbox_conf_flat
I0719 19:51:23.264569 32432 net.cpp:434] conv8_2_mbox_conf_flat <- conv8_2_mbox_conf_perm
I0719 19:51:23.264573 32432 net.cpp:408] conv8_2_mbox_conf_flat -> conv8_2_mbox_conf_flat
I0719 19:51:23.264586 32432 net.cpp:150] Setting up conv8_2_mbox_conf_flat
I0719 19:51:23.264590 32432 net.cpp:157] Top shape: 24 756 (18144)
I0719 19:51:23.264592 32432 net.cpp:165] Memory required for data: 5993750976
I0719 19:51:23.264593 32432 layer_factory.hpp:77] Creating layer conv8_2_mbox_priorbox
I0719 19:51:23.264596 32432 net.cpp:100] Creating Layer conv8_2_mbox_priorbox
I0719 19:51:23.264600 32432 net.cpp:434] conv8_2_mbox_priorbox <- conv8_2_conv8_2_relu_0_split_3
I0719 19:51:23.264602 32432 net.cpp:434] conv8_2_mbox_priorbox <- data_data_0_split_5
I0719 19:51:23.264612 32432 net.cpp:408] conv8_2_mbox_priorbox -> conv8_2_mbox_priorbox
I0719 19:51:23.264626 32432 net.cpp:150] Setting up conv8_2_mbox_priorbox
I0719 19:51:23.264629 32432 net.cpp:157] Top shape: 1 2 144 (288)
I0719 19:51:23.264631 32432 net.cpp:165] Memory required for data: 5993752128
I0719 19:51:23.264633 32432 layer_factory.hpp:77] Creating layer conv9_2_mbox_loc
I0719 19:51:23.264639 32432 net.cpp:100] Creating Layer conv9_2_mbox_loc
I0719 19:51:23.264642 32432 net.cpp:434] conv9_2_mbox_loc <- conv9_2_conv9_2_relu_0_split_0
I0719 19:51:23.264647 32432 net.cpp:408] conv9_2_mbox_loc -> conv9_2_mbox_loc
I0719 19:51:23.264871 32432 net.cpp:150] Setting up conv9_2_mbox_loc
I0719 19:51:23.264876 32432 net.cpp:157] Top shape: 24 16 1 1 (384)
I0719 19:51:23.264878 32432 net.cpp:165] Memory required for data: 5993753664
I0719 19:51:23.264881 32432 layer_factory.hpp:77] Creating layer conv9_2_mbox_loc_perm
I0719 19:51:23.264885 32432 net.cpp:100] Creating Layer conv9_2_mbox_loc_perm
I0719 19:51:23.264888 32432 net.cpp:434] conv9_2_mbox_loc_perm <- conv9_2_mbox_loc
I0719 19:51:23.264890 32432 net.cpp:408] conv9_2_mbox_loc_perm -> conv9_2_mbox_loc_perm
I0719 19:51:23.264937 32432 net.cpp:150] Setting up conv9_2_mbox_loc_perm
I0719 19:51:23.264940 32432 net.cpp:157] Top shape: 24 1 1 16 (384)
I0719 19:51:23.264942 32432 net.cpp:165] Memory required for data: 5993755200
I0719 19:51:23.264945 32432 layer_factory.hpp:77] Creating layer conv9_2_mbox_loc_flat
I0719 19:51:23.264950 32432 net.cpp:100] Creating Layer conv9_2_mbox_loc_flat
I0719 19:51:23.264952 32432 net.cpp:434] conv9_2_mbox_loc_flat <- conv9_2_mbox_loc_perm
I0719 19:51:23.264955 32432 net.cpp:408] conv9_2_mbox_loc_flat -> conv9_2_mbox_loc_flat
I0719 19:51:23.264967 32432 net.cpp:150] Setting up conv9_2_mbox_loc_flat
I0719 19:51:23.264971 32432 net.cpp:157] Top shape: 24 16 (384)
I0719 19:51:23.264972 32432 net.cpp:165] Memory required for data: 5993756736
I0719 19:51:23.264974 32432 layer_factory.hpp:77] Creating layer conv9_2_mbox_conf
I0719 19:51:23.264979 32432 net.cpp:100] Creating Layer conv9_2_mbox_conf
I0719 19:51:23.264982 32432 net.cpp:434] conv9_2_mbox_conf <- conv9_2_conv9_2_relu_0_split_1
I0719 19:51:23.264986 32432 net.cpp:408] conv9_2_mbox_conf -> conv9_2_mbox_conf
I0719 19:51:23.265689 32432 net.cpp:150] Setting up conv9_2_mbox_conf
I0719 19:51:23.265694 32432 net.cpp:157] Top shape: 24 84 1 1 (2016)
I0719 19:51:23.265697 32432 net.cpp:165] Memory required for data: 5993764800
I0719 19:51:23.265702 32432 layer_factory.hpp:77] Creating layer conv9_2_mbox_conf_perm
I0719 19:51:23.265704 32432 net.cpp:100] Creating Layer conv9_2_mbox_conf_perm
I0719 19:51:23.265707 32432 net.cpp:434] conv9_2_mbox_conf_perm <- conv9_2_mbox_conf
I0719 19:51:23.265710 32432 net.cpp:408] conv9_2_mbox_conf_perm -> conv9_2_mbox_conf_perm
I0719 19:51:23.265756 32432 net.cpp:150] Setting up conv9_2_mbox_conf_perm
I0719 19:51:23.265761 32432 net.cpp:157] Top shape: 24 1 1 84 (2016)
I0719 19:51:23.265763 32432 net.cpp:165] Memory required for data: 5993772864
I0719 19:51:23.265766 32432 layer_factory.hpp:77] Creating layer conv9_2_mbox_conf_flat
I0719 19:51:23.265769 32432 net.cpp:100] Creating Layer conv9_2_mbox_conf_flat
I0719 19:51:23.265771 32432 net.cpp:434] conv9_2_mbox_conf_flat <- conv9_2_mbox_conf_perm
I0719 19:51:23.265774 32432 net.cpp:408] conv9_2_mbox_conf_flat -> conv9_2_mbox_conf_flat
I0719 19:51:23.265786 32432 net.cpp:150] Setting up conv9_2_mbox_conf_flat
I0719 19:51:23.265791 32432 net.cpp:157] Top shape: 24 84 (2016)
I0719 19:51:23.265794 32432 net.cpp:165] Memory required for data: 5993780928
I0719 19:51:23.265795 32432 layer_factory.hpp:77] Creating layer conv9_2_mbox_priorbox
I0719 19:51:23.265799 32432 net.cpp:100] Creating Layer conv9_2_mbox_priorbox
I0719 19:51:23.265801 32432 net.cpp:434] conv9_2_mbox_priorbox <- conv9_2_conv9_2_relu_0_split_2
I0719 19:51:23.265805 32432 net.cpp:434] conv9_2_mbox_priorbox <- data_data_0_split_6
I0719 19:51:23.265807 32432 net.cpp:408] conv9_2_mbox_priorbox -> conv9_2_mbox_priorbox
I0719 19:51:23.265820 32432 net.cpp:150] Setting up conv9_2_mbox_priorbox
I0719 19:51:23.265830 32432 net.cpp:157] Top shape: 1 2 16 (32)
I0719 19:51:23.265832 32432 net.cpp:165] Memory required for data: 5993781056
I0719 19:51:23.265835 32432 layer_factory.hpp:77] Creating layer mbox_loc
I0719 19:51:23.265843 32432 net.cpp:100] Creating Layer mbox_loc
I0719 19:51:23.265846 32432 net.cpp:434] mbox_loc <- conv4_3_norm_mbox_loc_flat
I0719 19:51:23.265849 32432 net.cpp:434] mbox_loc <- fc7_mbox_loc_flat
I0719 19:51:23.265852 32432 net.cpp:434] mbox_loc <- conv6_2_mbox_loc_flat
I0719 19:51:23.265856 32432 net.cpp:434] mbox_loc <- conv7_2_mbox_loc_flat
I0719 19:51:23.265858 32432 net.cpp:434] mbox_loc <- conv8_2_mbox_loc_flat
I0719 19:51:23.265861 32432 net.cpp:434] mbox_loc <- conv9_2_mbox_loc_flat
I0719 19:51:23.265863 32432 net.cpp:408] mbox_loc -> mbox_loc
I0719 19:51:23.265882 32432 net.cpp:150] Setting up mbox_loc
I0719 19:51:23.265884 32432 net.cpp:157] Top shape: 24 34928 (838272)
I0719 19:51:23.265887 32432 net.cpp:165] Memory required for data: 5997134144
I0719 19:51:23.265888 32432 layer_factory.hpp:77] Creating layer mbox_conf
I0719 19:51:23.265892 32432 net.cpp:100] Creating Layer mbox_conf
I0719 19:51:23.265895 32432 net.cpp:434] mbox_conf <- conv4_3_norm_mbox_conf_flat
I0719 19:51:23.265898 32432 net.cpp:434] mbox_conf <- fc7_mbox_conf_flat
I0719 19:51:23.265902 32432 net.cpp:434] mbox_conf <- conv6_2_mbox_conf_flat
I0719 19:51:23.265904 32432 net.cpp:434] mbox_conf <- conv7_2_mbox_conf_flat
I0719 19:51:23.265906 32432 net.cpp:434] mbox_conf <- conv8_2_mbox_conf_flat
I0719 19:51:23.265909 32432 net.cpp:434] mbox_conf <- conv9_2_mbox_conf_flat
I0719 19:51:23.265911 32432 net.cpp:408] mbox_conf -> mbox_conf
I0719 19:51:23.265925 32432 net.cpp:150] Setting up mbox_conf
I0719 19:51:23.265929 32432 net.cpp:157] Top shape: 24 183372 (4400928)
I0719 19:51:23.265930 32432 net.cpp:165] Memory required for data: 6014737856
I0719 19:51:23.265933 32432 layer_factory.hpp:77] Creating layer mbox_priorbox
I0719 19:51:23.265936 32432 net.cpp:100] Creating Layer mbox_priorbox
I0719 19:51:23.265938 32432 net.cpp:434] mbox_priorbox <- conv4_3_norm_mbox_priorbox
I0719 19:51:23.265940 32432 net.cpp:434] mbox_priorbox <- fc7_mbox_priorbox
I0719 19:51:23.265944 32432 net.cpp:434] mbox_priorbox <- conv6_2_mbox_priorbox
I0719 19:51:23.265946 32432 net.cpp:434] mbox_priorbox <- conv7_2_mbox_priorbox
I0719 19:51:23.265949 32432 net.cpp:434] mbox_priorbox <- conv8_2_mbox_priorbox
I0719 19:51:23.265950 32432 net.cpp:434] mbox_priorbox <- conv9_2_mbox_priorbox
I0719 19:51:23.265954 32432 net.cpp:408] mbox_priorbox -> mbox_priorbox
I0719 19:51:23.265964 32432 net.cpp:150] Setting up mbox_priorbox
I0719 19:51:23.265969 32432 net.cpp:157] Top shape: 1 2 34928 (69856)
I0719 19:51:23.265970 32432 net.cpp:165] Memory required for data: 6015017280
I0719 19:51:23.265971 32432 layer_factory.hpp:77] Creating layer mbox_loss
I0719 19:51:23.265980 32432 net.cpp:100] Creating Layer mbox_loss
I0719 19:51:23.265982 32432 net.cpp:434] mbox_loss <- mbox_loc
I0719 19:51:23.265985 32432 net.cpp:434] mbox_loss <- mbox_conf
I0719 19:51:23.265987 32432 net.cpp:434] mbox_loss <- mbox_priorbox
…
state {
  phase: TEST
}
layer {
  name: "data"
  type: "AnnotatedData"
  top: "data"
  top: "label"
  include {
    phase: TEST
  }
  transform_param {
    mean_value: 104
    mean_value: 117
    mean_value: 123
    resize_param {
      prob: 1
      resize_mode: WARP
      height: 300
      width: 300
      interp_mode: LINEAR
    }
  }
  data_param {
    source: "examples/VOC0712/VOC0712_test_lmdb"
    batch_size: 8
    backend: LMDB
  }
  annotated_data_param {
    batch_sampler {
    }
    label_map_file: "data/VOC0712/labelmap_voc.prototxt"
  }
}
layer {
  name: "conv1_1"
  type: "Convolution"
  bottom: "data"
  top: "conv1_1"
  param {
    lr_mult: 1
    decay_mult: 1
  }
  param {
    lr_mult: 2
    decay_mult: 0
  }
  convolution_param {
    num_output: 64
    pad: 1
    kernel_size: 3
    weight_filler {
      type: "xavier"
    }
    bias_filler {
      type: "constant"
      value: 0
    }
  }
}
layer {
  name: "relu1_1"
  type: "ReLU"
  bottom: "conv1_1"
  top: "conv1_1"
}
layer {
  name: "conv1_2"
  type: "Convolution"
  bottom: "conv1_1"
  top: "conv1_2"
  param {
    lr_mult: 1
    decay_mult: 1
  }
  param {
    lr_mult: 2
    decay_mult: 0
  }
  convolution_param {
    num_output: 64
    pad: 1
    kernel_size: 3
    weight_filler {
      type: "xavier"
    }
    bias_filler {
      type: "constant"
      value: 0
    }
  }
}
layer {
  name: "relu1_2"
  type: "ReLU"
  bottom: "conv1_2"
  top: "conv1_2"
}
layer {
  name: "pool1"
  type: "Pooling"
  bottom: "conv1_2"
  top: "pool1"
  pooling_param {
    pool: MAX
    kernel_size: 2
    stride: 2
  }
}
layer {
  name: "conv2_1"
  type: "Convolution"
  bottom: "pool1"
  top: "conv2_1"
  param {
    lr_mult: 1
    decay_mult: 1
  }
  param {
    lr_mult: 2
    decay_mult: 0
  }
  convolution_param {
    num_output: 128
    pad: 1
    kernel_size: 3
    weight_filler {
      type: "xavier"
    }
    bias_filler {
      type: "constant"
      value: 0
    }
  }
}
layer {
  name: "relu2_1"
  type: "ReLU"
  bottom: "conv2_1"
  top: "conv2_1"
}
layer {
  name: "conv2_2"
  type: "Convolution"
  bottom: "conv2_1"
  top: "conv2_2"
  param {
    lr_mult: 1
    decay_mult: 1
  }
  param {
    lr_mult: 2
    decay_mult: 0
  }
  convolution_param {
    num_output: 128
    pad: 1
    kernel_size: 3
    weight_filler {
      type: "xavier"
    }
    bias_filler {
      type: "constant"
      value: 0
    }
  }
}
layer {
  name: "relu2_2"
  type: "ReLU"
  bottom: "conv2_2"
  top: "conv2_2"
}
layer {
  name: "pool2"
  type: "Pooling"
  bottom: "conv2_2"
  top: "pool2"
  pooling_param {
    pool: MAX
    kernel_size: 2
    stride: 2
  }
}
layer {
  name: "conv3_1"
  type: "Convolution"
  bottom: "pool2"
  top: "conv3_1"
  param {
    lr_mult: 1
    decay_mult: 1
  }
  param {
    lr_mult: 2
    decay_mult: 0
  }
  convolution_param {
    num_output: 256
    pad: 1
    kernel_size: 3
    weight_filler {
      type: "xavier"
    }
    bias_filler {
      type: "constant"
      value: 0
    }
  }
}
layer {
  name: "relu3_1"
  type: "ReLU"
  bottom: "conv3_1"
  top: "conv3_1"
}
layer {
  name: "conv3_2"
  type: "Convolution"
  bottom: "conv3_1"
  top: "conv3_2"
  param {
    lr_mult: 1
    decay_mult: 1
  }
  param {
    lr_mult: 2
    decay_mult: 0
  }
  convolution_param {
    num_output: 256
    pad: 1
    kernel_size: 3
    weight_filler {
      type: "xavier"
    }
    bias_filler {
      type: "constant"
      value: 0
    }
  }
}
layer {
  name: "relu3_2"
  type: "ReLU"
  bottom: "conv3_2"
  top: "conv3_2"
}
layer {
  name: "conv3_3"
  type: "Convolution"
  bottom: "conv3_2"
  top: "conv3_3"
  param {
    lr_mult: 1
    decay_mult: 1
  }
  param {
    lr_mult: 2
    decay_mult: 0
  }
  convolution_param {
    num_output: 256
    pad: 1
    kernel_size: 3
    weight_filler {
      type: "xavier"
    }
    bias_filler {
      type: "constant"
      value: 0
    }
  }
}
layer {
  name: "relu3_3"
  type: "ReLU"
  bottom: "conv3_3"
  top: "conv3_3"
}
layer {
  name: "pool3"
  type: "Pooling"
  bottom: "conv3_3"
  top: "pool3"
  pooling_param {
    pool: MAX
    kernel_size: 2
    stride: 2
  }
}
layer {
  name: "conv4_1"
  type: "Convolution"
  bottom: "pool3"
  top: "conv4_1"
  param {
    lr_mult: 1
    decay_mult: 1
  }
  param {
    lr_mult: 2
    decay_mult: 0
  }
  convolution_param {
    num_output: 512
    pad: 1
    kernel_size: 3
    weight_filler {
      type: "xavier"
    }
    bias_filler {
      type: "constant"
      value: 0
    }
  }
}
layer {
  name: "relu4_1"
  type: "ReLU"
  bottom: "conv4_1"
  top: "conv4_1"
}
layer {
  name: "conv4_2"
  type: "Convolution"
  bottom: "conv4_1"
  top: "conv4_2"
  param {
    lr_mult: 1
    decay_mult: 1
  }
  param {
    lr_mult: 2
    decay_mult: 0
  }
  convolution_param {
    num_output: 512
    pad: 1
    kernel_size: 3
    weight_filler {
      type: "xavier"
    }
    bias_filler {
      type: "constant"
      value: 0
    }
  }
}
layer {
  name: "relu4_2"
  type: "ReLU"
  bottom: "conv4_2"
  top: "conv4_2"
}
layer {
  name: "conv4_3"
  type: "Convolution"
  bottom: "conv4_2"
  top: "conv4_3"
  param {
    lr_mult: 1
    decay_mult: 1
  }
  param {
    lr_mult: 2
    decay_mult: 0
  }
  convolution_param {
    num_output: 512
    pad: 1
    kernel_size: 3
    weight_filler {
      type: "xavier"
    }
    bias_filler {
      type: "constant"
      value: 0
    }
  }
}
layer {
  name: "relu4_3"
  type: "ReLU"
  bottom: "conv4_3"
  top: "conv4_3"
}
layer {
  name: "pool4"
  type: "Pooling"
  bottom: "conv4_3"
  top: "pool4"
  pooling_param {
    pool: MAX
    kernel_size: 2
    stride: 2
  }
}
layer {
  name: "conv5_1"
  type: "Convolution"
  bottom: "pool4"
  top: "conv5_1"
  param {
    lr_mult: 1
    decay_mult: 1
  }
  param {
    lr_mult: 2
    decay_mult: 0
  }
  convolution_param {
    num_output: 512
    pad: 1
    kernel_size: 3
    weight_filler {
      type: "xavier"
    }
    bias_filler {
      type: "constant"
      value: 0
    }
    dilation: 1
  }
}
layer {
  name: "relu5_1"
  type: "ReLU"
  bottom: "conv5_1"
  top: "conv5_1"
}
layer {
  name: "conv5_2"
  type: "Convolution"
  bottom: "conv5_1"
  top: "conv5_2"
  param {
    lr_mult: 1
    decay_mult: 1
  }
  param {
    lr_mult: 2
    decay_mult: 0
  }
  convolution_param {
    num_output: 512
    pad: 1
    kernel_size: 3
    weight_filler {
      type: "xavier"
    }
    bias_filler {
      type: "constant"
      value: 0
    }
    dilation: 1
  }
}
layer {
  name: "relu5_2"
  type: "ReLU"
  bottom: "conv5_2"
  top: "conv5_2"
}
layer {
  name: "conv5_3"
  type: "Convolution"
  bottom: "conv5_2"
  top: "conv5_3"
  param {
    lr_mult: 1
    decay_mult: 1
  }
  param {
    lr_mult: 2
    decay_mult: 0
  }
  convolution_param {
    num_output: 512
    pad: 1
    kernel_size: 3
    weight_filler {
      type: "xavier"
    }
    bias_filler {
      type: "constant"
      value: 0
    }
    dilation: 1
  }
}
layer {
  name: "relu5_3"
  type: "ReLU"
  bottom: "conv5_3"
  top: "conv5_3"
}
layer {
  name: "pool5"
  type: "Pooling"
  bottom: "conv5_3"
  top: "pool5"
  pooling_param {
    pool: MAX
    kernel_size: 3
    stride: 1
    pad: 1
  }
}
layer {
  name: "fc6"
  type: "Convolution"
  bottom: "pool5"
  top: "fc6"
  param {
    lr_mult: 1
    decay_mult: 1
  }
  param {
    lr_mult: 2
    decay_mult: 0
  }
  convolution_param {
    num_output: 1024
    pad: 6
    kernel_size: 3
    weight_filler {
      type: "xavier"
    }
    bias_filler {
      type: "constant"
      value: 0
    }
    dilation: 6
  }
}
layer {
  name: "relu6"
  type: "ReLU"
  bottom: "fc6"
  top: "fc6"
}
layer {
  name: "fc7"
  type: "Convolution"
  bottom: "fc6"
  top: "fc7"
  param {
    lr_mult: 1
    decay_mult: 1
  }
  param {
    lr_mult: 2
    decay_mult: 0
  }
  convolution_param {
    num_output: 1024
    kernel_size: 1
    weight_filler {
      type: "xavier"
    }
    bias_filler {
      type: "constant"
      value: 0
    }
  }
}
layer {
  name: "relu7"
  type: "ReLU"
  bottom: "fc7"
  top: "fc7"
}
layer {
  name: "conv6_1"
  type: "Convolution"
  bottom: "fc7"
  top: "conv6_1"
  param {
    lr_mult: 1
    decay_mult: 1
  }
  param {
    lr_mult: 2
    decay_mult: 0
  }
  convolution_param {
    num_output: 256
    pad: 0
    kernel_size: 1
    stride: 1
    weight_filler {
      type: "xavier"
    }
    bias_filler {
      type: "constant"
      value: 0
    }
  }
}
layer {
  name: "conv6_1_relu"
  type: "ReLU"
  bottom: "conv6_1"
  top: "conv6_1"
}
layer {
  name: "conv6_2"
  type: "Convolution"
  bottom: "conv6_1"
  top: "conv6_2"
  param {
    lr_mult: 1
    decay_mult: 1
  }
  param {
    lr_mult: 2
    decay_mult: 0
  }
  convolution_param {
    num_output: 512
    pad: 1
    kernel_size: 3
    stride: 2
    weight_filler {
      type: "xavier"
    }
    bias_filler {
      type: "constant"
      value: 0
    }
  }
}
layer {
  name: "conv6_2_relu"
  type: "ReLU"
  bottom: "conv6_2"
  top: "conv6_2"
}
layer {
  name: "conv7_1"
  type: "Convolution"
  bottom: "conv6_2"
  top: "conv7_1"
  param {
    lr_mult: 1
    decay_mult: 1
  }
  param {
    lr_mult: 2
    decay_mult: 0
  }
  convolution_param {
    num_output: 128
    pad: 0
    kernel_size: 1
    stride: 1
    weight_filler {
      type: "xavier"
    }
    bias_filler {
      type: "constant"
      value: 0
    }
  }
}
layer {
  name: "conv7_1_relu"
  type: "ReLU"
  bottom: "conv7_1"
  top: "conv7_1"
}
layer {
  name: "conv7_2"
  type: "Convolution"
  bottom: "conv7_1"
  top: "conv7_2"
  param {
    lr_mult: 1
    decay_mult: 1
  }
  param {
    lr_mult: 2
    decay_mult: 0
  }
  convolution_param {
    num_output: 256
    pad: 1
    kernel_size: 3
    stride: 2
    weight_filler {
      type: "xavier"
    }
    bias_filler {
      type: "constant"
      value: 0
    }
  }
}
layer {
  name: "conv7_2_relu"
  type: "ReLU"
  bottom: "conv7_2"
  top: "conv7_2"
}
layer {
  name: "conv8_1"
  type: "Convolution"
  bottom: "conv7_2"
  top: "conv8_1"
  param {
    lr_mult: 1
    decay_mult: 1
  }
  param {
    lr_mult: 2
    decay_mult: 0
  }
  convolution_param {
    num_output: 128
    pad: 0
    kernel_size: 1
    stride: 1
    weight_filler {
      type: "xavier"
    }
    bias_filler {
      type: "constant"
      value: 0
    }
  }
}
layer {
  name: "conv8_1_relu"
  type: "ReLU"
  bottom: "conv8_1"
  top: "conv8_1"
}
layer {
  name: "conv8_2"
  type: "Convolution"
  bottom: "conv8_1"
  top: "conv8_2"
  param {
    lr_mult: 1
    decay_mult: 1
  }
  param {
    lr_mult: 2
    decay_mult: 0
  }
  convolution_param {
    num_output: 256
    pad: 0
    kernel_size: 3
    stride: 1
    weight_filler {
      type: "xavier"
    }
    bias_filler {
      type: "constant"
      value: 0
    }
  }
}
layer {
  name: "conv8_2_relu"
  type: "ReLU"
  bottom: "conv8_2"
  top: "conv8_2"
}
layer {
  name: "conv9_1"
  type: "Convolution"
  bottom: "conv8_2"
  top: "conv9_1"
  param {
    lr_mult: 1
    decay_mult: 1
  }
  param {
    lr_mult: 2
    decay_mult: 0
  }
  convolution_param {
    num_output: 128
    pad: 0
    kernel_size: 1
    stride: 1
    weight_filler {
      type: "xavier"
    }
    bias_filler {
      type: "constant"
      value: 0
    }
  }
}
layer {
  name: "conv9_1_relu"
  type: "ReLU"
  bottom: "conv9_1"
  top: "conv9_1"
}
layer {
  name: "conv9_2"
  type: "Convolution"
  bottom: "conv9_1"
  top: "conv9_2"
  param {
    lr_mult: 1
    decay_mult: 1
  }
  param {
    lr_mult: 2
    decay_mult: 0
  }
  convolution_param {
    num_output: 256
    pad: 0
    kernel_size: 3
    stride: 1
    weight_filler {
      type: "xavier"
    }
    bias_filler {
      type: "constant"
      value: 0
    }
  }
}
layer {
  name: "conv9_2_relu"
  type: "ReLU"
  bottom: "conv9_2"
  top: "conv9_2"
}
layer {
  name: "conv4_3_norm"
  type: "Normalize"
  bottom: "conv4_3"
  top: "conv4_3_norm"
  norm_param {
    across_spatial: false
    scale_filler {
      type: "constant"
      value: 20
    }
    channel_shared: false
  }
}
layer {
  name: "conv4_3_norm_mbox_loc"
  type: "Convolution"
  bottom: "conv4_3_norm"
  top: "conv4_3_norm_mbox_loc"
  param {
    lr_mult: 1
    decay_mult: 1
  }
  param {
    lr_mult: 2
    decay_mult: 0
  }
  convolution_param {
    num_output: 16
    pad: 1
    kernel_size: 3
    stride: 1
    weight_filler {
      type: "xavier"
    }
    bias_filler {
      type: "constant"
      value: 0
    }
  }
}
layer {
  name: "conv4_3_norm_mbox_loc_perm"
  type: "Permute"
  bottom: "conv4_3_norm_mbox_loc"
  top: "conv4_3_norm_mbox_loc_perm"
  permute_param {
    order: 0
    order: 2
    order: 3
    order: 1
  }
}
layer {
  name: "conv4_3_norm_mbox_loc_flat"
  type: "Flatten"
  bottom: "conv4_3_norm_mbox_loc_perm"
  top: "conv4_3_norm_mbox_loc_flat"
  flatten_param {
    axis: 1
  }
}
layer {
  name: "conv4_3_norm_mbox_conf"
  type: "Convolution"
  bottom: "conv4_3_norm"
  top: "conv4_3_norm_mbox_conf"
  param {
    lr_mult: 1
    decay_mult: 1
  }
  param {
    lr_mult: 2
    decay_mult: 0
  }
  convolution_param {
    num_output: 84
    pad: 1
    kernel_size: 3
    stride: 1
    weight_filler {
      type: "xavier"
    }
    bias_filler {
      type: "constant"
      value: 0
    }
  }
}
layer {
  name: "conv4_3_norm_mbox_conf_perm"
  type: "Permute"
  bottom: "conv4_3_norm_mbox_conf"
  top: "conv4_3_norm_mbox_conf_perm"
  permute_param {
    order: 0
    order: 2
    order: 3
    order: 1
  }
}
layer {
  name: "conv4_3_norm_mbox_conf_flat"
  type: "Flatten"
  bottom: "conv4_3_norm_mbox_conf_perm"
  top: "conv4_3_norm_mbox_conf_flat"
  flatten_param {
    axis: 1
  }
}
layer {
  name: "conv4_3_norm_mbox_priorbox"
  type: "PriorBox"
  bottom: "conv4_3_norm"
  bottom: "data"
  top: "conv4_3_norm_mbox_priorbox"
  prior_box_param {
    min_size: 30
    max_size: 60
    aspect_ratio: 2
    flip: true
    clip: false
    variance: 0.1
    variance: 0.1
    variance: 0.2
    variance: 0.2
    step: 8
    offset: 0.5
  }
}
layer {
  name: "fc7_mbox_loc"
  type: "Convolution"
  bottom: "fc7"
  top: "fc7_mbox_loc"
  param {
    lr_mult: 1
    decay_mult: 1
  }
  param {
    lr_mult: 2
    decay_mult: 0
  }
  convolution_param {
    num_output: 24
    pad: 1
    kernel_size: 3
    stride: 1
    weight_filler {
      type: "xavier"
    }
    bias_filler {
      type: "constant"
      value: 0
    }
  }
}
layer {
  name: "fc7_mbox_loc_perm"
  type: "Permute"
  bottom: "fc7_mbox_loc"
  top: "fc7_mbox_loc_perm"
  permute_param {
    order: 0
    order: 2
    order: 3
    order: 1
  }
}
layer {
  name: "fc7_mbox_loc_flat"
  type: "Flatten"
  bottom: "fc7_mbox_loc_perm"
  top: "fc7_mbox_loc_flat"
  flatten_param {
    axis: 1
  }
}
layer {
  name: "fc7_mbox_conf"
  type: "Convolution"
  bottom: "fc7"
  top: "fc7_mbox_conf"
  param {
    lr_mult: 1
    decay_mult: 1
  }
  param {
    lr_mult: 2
    decay_mult: 0
  }
  convolution_param {
    num_output: 126
    pad: 1
    kernel_size: 3
    stride: 1
    weight_filler {
      type: "xavier"
    }
    bias_filler {
      type: "constant"
      value: 0
    }
  }
}
layer {
  name: "fc7_mbox_conf_perm"
  type: "Permute"
  bottom: "fc7_mbox_conf"
  top: "fc7_mbox_conf_perm"
  permute_param {
    order: 0
    order: 2
    order: 3
    order: 1
  }
}
layer {
  name: "fc7_mbox_conf_flat"
  type: "Flatten"
  bottom: "fc7_mbox_conf_perm"
  top: "fc7_mbox_conf_flat"
  flatten_param {
    axis: 1
  }
}
layer {
  name: "fc7_mbox_priorbox"
  type: "PriorBox"
  bottom: "fc7"
  bottom: "data"
  top: "fc7_mbox_priorbox"
  prior_box_param {
    min_size: 60
    max_size: 111
    aspect_ratio: 2
    aspect_ratio: 3
    flip: true
    clip: false
    variance: 0.1
    variance: 0.1
    variance: 0.2
    variance: 0.2
    step: 16
    offset: 0.5
  }
}
layer {
  name: "conv6_2_mbox_loc"
  type: "Convolution"
  bottom: "conv6_2"
  top: "conv6_2_mbox_loc"
  param {
    lr_mult: 1
    decay_mult: 1
  }
  param {
    lr_mult: 2
    decay_mult: 0
  }
  convolution_param {
    num_output: 24
    pad: 1
    kernel_size: 3
    stride: 1
    weight_filler {
      type: "xavier"
    }
    bias_filler {
      type: "constant"
      value: 0
    }
  }
}
layer {
  name: "conv6_2_mbox_loc_perm"
  type: "Permute"
  bottom: "conv6_2_mbox_loc"
  top: "conv6_2_mbox_loc_perm"
  permute_param {
    order: 0
    order: 2
    order: 3
    order: 1
  }
}
layer {
  name: "conv6_2_mbox_loc_flat"
  type: "Flatten"
  bottom: "conv6_2_mbox_loc_perm"
  top: "conv6_2_mbox_loc_flat"
  flatten_param {
    axis: 1
  }
}
layer {
  name: "conv6_2_mbox_conf"
  type: "Convolution"
  bottom: "conv6_2"
  top: "conv6_2_mbox_conf"
  param {
    lr_mult: 1
    decay_mult: 1
  }
  param {
    lr_mult: 2
    decay_mult: 0
  }
  convolution_param {
    num_output: 126
    pad: 1
    kernel_size: 3
    stride: 1
    weight_filler {
      type: "xavier"
    }
    bias_filler {
      type: "constant"
      value: 0
    }
  }
}
layer {
  name: "conv6_2_mbox_conf_perm"
  type: "Permute"
  bottom: "conv6_2_mbox_conf"
  top: "conv6_2_mbox_conf_perm"
  permute_param {
    order: 0
    order: 2
    order: 3
    order: 1
  }
}
layer {
  name: "conv6_2_mbox_conf_flat"
  type: "Flatten"
  bottom: "conv6_2_mbox_conf_perm"
  top: "conv6_2_mbox_conf_flat"
  flatten_param {
    axis: 1
  }
}
layer {
  name: "conv6_2_mbox_priorbox"
  type: "PriorBox"
  bottom: "conv6_2"
  bottom: "data"
  top: "conv6_2_mbox_priorbox"
  prior_box_param {
    min_size: 111
    max_size: 162
    aspect_ratio: 2
    aspect_ratio: 3
    flip: true
    clip: false
    variance: 0.1
    variance: 0.1
    variance: 0.2
    variance: 0.2
    step: 32
    offset: 0.5
  }
}
layer {
  name: "conv7_2_mbox_loc"
  type: "Convolution"
  bottom: "conv7_2"
  top: "conv7_2_mbox_loc"
  param {
    lr_mult: 1
    decay_mult: 1
  }
  param {
    lr_mult: 2
    decay_mult: 0
  }
  convolution_param {
    num_output: 24
    pad: 1
    kernel_size: 3
    stride: 1
    weight_filler {
      type: "xavier"
    }
    bias_filler {
      type: "constant"
      value: 0
    }
  }
}
layer {
  name: "conv7_2_mbox_loc_perm"
  type: "Permute"
  bottom: "conv7_2_mbox_loc"
  top: "conv7_2_mbox_loc_perm"
  permute_param {
    order: 0
    order: 2
    order: 3
    order: 1
  }
}
layer {
  name: "conv7_2_mbox_loc_flat"
  type: "Flatten"
  bottom: "conv7_2_mbox_loc_perm"
  top: "conv7_2_mbox_loc_flat"
  flatten_param {
    axis: 1
  }
}
layer {
  name: "conv7_2_mbox_conf"
  type: "Convolution"
  bottom: "conv7_2"
  top: "conv7_2_mbox_conf"
  param {
    lr_mult: 1
    decay_mult: 1
  }
  param {
    lr_mult: 2
    decay_mult: 0
  }
  convolution_param {
    num_output: 126
    pad: 1
    kernel_size: 3
    stride: 1
    weight_filler {
      type: "xavier"
    }
    bias_filler {
      type: "constant"
      value: 0
    }
  }
}
layer {
  name: "conv7_2_mbox_conf_perm"
  type: "Permute"
  bottom: "conv7_2_mbox_conf"
  top: "conv7_2_mbox_conf_perm"
  permute_param {
    order: 0
    order: 2
    order: 3
    order: 1
  }
}
layer {
  name: "conv7_2_mbox_conf_flat"
  type: "Flatten"
  bottom: "conv7_2_mbox_conf_perm"
  top: "conv7_2_mbox_conf_flat"
  flatten_param {
    axis: 1
  }
}
layer {
  name: "conv7_2_mbox_priorbox"
  type: "PriorBox"
  bottom: "conv7_2"
  bottom: "data"
  top: "conv7_2_mbox_priorbox"
  prior_box_param {
    min_size: 162
    max_size: 213
    aspect_ratio: 2
    aspect_ratio: 3
    flip: true
    clip: false
    variance: 0.1
    variance: 0.1
    variance: 0.2
    variance: 0.2
    step: 64
    offset: 0.5
  }
}
layer {
  name: "conv8_2_mbox_loc"
  type: "Convolution"
  bottom: "conv8_2"
  top: "conv8_2_mbox_loc"
  param {
    lr_mult: 1
    decay_mult: 1
  }
  param {
    lr_mult: 2
    decay_mult: 0
  }
  convolution_param {
    num_output: 16
    pad: 1
    kernel_size: 3
    stride: 1
    weight_filler {
      type: "xavier"
    }
    bias_filler {
      type: "constant"
      value: 0
    }
  }
}
layer {
  name: "conv8_2_mbox_loc_perm"
  type: "Permute"
  bottom: "conv8_2_mbox_loc"
  top: "conv8_2_mbox_loc_perm"
  permute_param {
    order: 0
    order: 2
    order: 3
    order: 1
  }
}
layer {
  name: "conv8_2_mbox_loc_flat"
  type: "Flatten"
  bottom: "conv8_2_mbox_loc_perm"
  top: "conv8_2_mbox_loc_flat"
  flatten_param {
    axis: 1
  }
}
layer {
  name: "conv8_2_mbox_conf"
  type: "Convolution"
  bottom: "conv8_2"
  top: "conv8_2_mbox_conf"
  param {
    lr_mult: 1
    decay_mult: 1
  }
  param {
    lr_mult: 2
    decay_mult: 0
  }
  convolution_param {
    num_output: 84
    pad: 1
    kernel_size: 3
    stride: 1
    weight_filler {
      type: "xavier"
    }
    bias_filler {
      type: "constant"
      value: 0
    }
  }
}
layer {
  name: "conv8_2_mbox_conf_perm"
  type: "Permute"
  bottom: "conv8_2_mbox_conf"
  top: "conv8_2_mbox_conf_perm"
  permute_param {
    order: 0
    order: 2
    order: 3
    order: 1
  }
}
layer {
  name: "conv8_2_mbox_conf_flat"
  type: "Flatten"
  bottom: "conv8_2_mbox_conf_perm"
  top: "conv8_2_mbox_conf_flat"
  flatten_param {
    axis: 1
  }
}
layer {
  name: "conv8_2_mbox_priorbox"
  type: "PriorBox"
  bottom: "conv8_2"
  bottom: "data"
  top: "conv8_2_mbox_priorbox"
  prior_box_param {
    min_size: 213
    max_size: 264
    aspect_ratio: 2
    flip: true
    clip: false
    variance: 0.1
    variance: 0.1
    variance: 0.2
    variance: 0.2
    step: 100
    offset: 0.5
  }
}
layer {
  name: "conv9_2_mbox_loc"
  type: "Convolution"
  bottom: "conv9_2"
  top: "conv9_2_mbox_loc"
  param {
    lr_mult: 1
    decay_mult: 1
  }
  param {
    lr_mult: 2
    decay_mult: 0
  }
  convolution_param {
    num_output: 16
    pad: 1
    kernel_size: 3
    stride: 1
    weight_filler {
      type: "xavier"
    }
    bias_filler {
      type: "constant"
      value: 0
    }
  }
}
layer {
  name: "conv9_2_mbox_loc_perm"
  type: "Permute"
  bottom: "conv9_2_mbox_loc"
  top: "conv9_2_mbox_loc_perm"
  permute_param {
    order: 0
    order: 2
    order: 3
    order: 1
  }
}
layer {
  name: "conv9_2_mbox_loc_flat"
  type: "Flatten"
  bottom: "conv9_2_mbox_loc_perm"
  top: "conv9_2_mbox_loc_flat"
  flatten_param {
    axis: 1
  }
}
layer {
  name: "conv9_2_mbox_conf"
  type: "Convolution"
  bottom: "conv9_2"
  top: "conv9_2_mbox_conf"
  param {
    lr_mult: 1
    decay_mult: 1
  }
  param {
    lr_mult: 2
    decay_mult: 0
  }
  convolution_param {
    num_output: 84
    pad: 1
    kernel_size: 3
    stride: 1
    weight_filler {
      type: "xavier"
    }
    bias_filler {
      type: "constant"
      value: 0
    }
  }
}
layer {
  name: "conv9_2_mbox_conf_perm"
  type: "Permute"
  bottom: "conv9_2_mbox_conf"
  top: "conv9_2_mbox_conf_perm"
  permute_param {
    order: 0
    order: 2
    order: 3
    order: 1
  }
}
layer {
  name: "conv9_2_mbox_conf_flat"
  type: "Flatten"
  bottom: "conv9_2_mbox_conf_perm"
  top: "conv9_2_mbox_conf_flat"
  flatten_param {
    axis: 1
  }
}
layer {
  name: "conv9_2_mbox_priorbox"
  type: "PriorBox"
  bottom: "conv9_2"
  bottom: "data"
  top: "conv9_2_mbox_priorbox"
  prior_box_param {
    min_size: 264
    max_size: 315
    aspect_ratio: 2
    flip: true
    clip: false
    variance: 0.1
    variance: 0.1
    variance: 0.2
    variance: 0.2
    step: 300
    offset: 0.5
  }
}
layer {
  name: "mbox_loc"
  type: "Concat"
  bottom: "conv4_3_norm_mbox_loc_flat"
  bottom: "fc7_mbox_loc_flat"
  bottom: "conv6_2_mbox_loc_flat"
  bottom: "conv7_2_mbox_loc_flat"
  bottom: "conv8_2_mbox_loc_flat"
  bottom: "conv9_2_mbox_loc_flat"
  top: "mbox_loc"
  concat_param {
    axis: 1
  }
}
layer {
  name: "mbox_conf"
  type: "Concat"
  bottom: "conv4_3_norm_mbox_conf_flat"
  bottom: "fc7_mbox_conf_flat"
  bottom: "conv6_2_mbox_conf_flat"
  bottom: "conv7_2_mbox_conf_flat"
  bottom: "conv8_2_mbox_conf_flat"
  bottom: "conv9_2_mbox_conf_flat"
  top: "mbox_conf"
  concat_param {
    axis: 1
  }
}
layer {
  name: "mbox_priorbox"
  type: "Concat"
  bottom: "conv4_3_norm_mbox_priorbox"
  bottom: "fc7_mbox_priorbox"
  bottom: "conv6_2_mbox_priorbox"
  bottom: "conv7_2_mbox_priorbox"
  bottom: "conv8_2_mbox_priorbox"
  bottom: "conv9_2_mbox_priorbox"
  top: "mbox_priorbox"
  concat_param {
    axis: 2
  }
}
layer {
  name: "mbox_conf_reshape"
  type: "Reshape"
  bottom: "mbox_conf"
  top: "mbox_conf_reshape"
  reshape_param {
    shape {
      dim: 0
      dim: -1
      dim: 21
    }
  }
}
layer {
  name: "mbox_conf_softmax"
  type: "Softmax"
  bottom: "mbox_conf_reshape"
  top: "mbox_conf_softmax"
  softmax_param {
    axis: 2
  }
}
layer {
  name: "mbox_conf_flatten"
  type: "Flatten"
  bottom: "mbox_conf_softmax"
  top: "mbox_conf_flatten"
  flatten_param {
    axis: 1
  }
}
layer {
  name: "detection_out"
  type: "DetectionOutput"
  bottom: "mbox_loc"
  bottom: "mbox_conf_flatten"
  bottom: "mbox_priorbox"
  top: "detection_out"
  include {
    phase: TEST
  }
  detection_output_param {
    num_classes: 21
    share_location: true
    background_label_id: 0
    nms_param {
      nms_threshold: 0.45
      top_k: 400
    }
    save_output_param {
      output_directory: "/home/dake/data/VOCdevkit/results/VOC2007/SSD_300x300/Main"
      output_name_prefix: "comp4_det_test_"
      output_format: "VOC"
      label_map_file: "data/VOC0712/labelmap_voc.prototxt"
      name_size_file: "data/VOC0712/test_name_size.txt"
      num_test_image: 4952
    }
    code_type: CENTER_SIZE
    keep_top_k: 200
    confidence_threshold: 0.01
  }
}
layer {
  name: "detection_eval"
  type: "DetectionEvaluate"
  bottom: "detection_out"
  bottom: "label"
  top: "detection_eval"
  include {
    phase: TEST
  }
  detection_evaluate_param {
    num_classes: 21
    background_label_id: 0
    overlap_threshold: 0.5
    evaluate_difficult_gt: false
    name_size_file: "data/VOC0712/test_name_size.txt"
  }
}
I0719 19:51:23.268513 32432 layer_factory.hpp:77] Creating layer data
I0719 19:51:23.268595 32432 net.cpp:100] Creating Layer data
I0719 19:51:23.268604 32432 net.cpp:408] data -> data
I0719 19:51:23.268610 32432 net.cpp:408] data -> label
I0719 19:51:23.270488 32458 db_lmdb.cpp:35] Opened lmdb examples/VOC0712/VOC0712_test_lmdb
I0719 19:51:23.272704 32432 annotated_data_layer.cpp:62] output data size: 8,3,300,300
I0719 19:51:23.289515 32432 net.cpp:150] Setting up data
I0719 19:51:23.289537 32432 net.cpp:157] Top shape: 8 3 300 300 (2160000)
I0719 19:51:23.289541 32432 net.cpp:157] Top shape: 1 1 2 8 (16)
I0719 19:51:23.289543 32432 net.cpp:165] Memory required for data: 8640064
I0719 19:51:23.289547 32432 layer_factory.hpp:77] Creating layer data_data_0_split
I0719 19:51:23.289557 32432 net.cpp:100] Creating Layer data_data_0_split
I0719 19:51:23.289561 32432 net.cpp:434] data_data_0_split <- data
I0719 19:51:23.289566 32432 net.cpp:408] data_data_0_split -> data_data_0_split_0
I0719 19:51:23.289573 32432 net.cpp:408] data_data_0_split -> data_data_0_split_1
I0719 19:51:23.289577 32432 net.cpp:408] data_data_0_split -> data_data_0_split_2
I0719 19:51:23.289582 32432 net.cpp:408] data_data_0_split -> data_data_0_split_3
I0719 19:51:23.289587 32432 net.cpp:408] data_data_0_split -> data_data_0_split_4
I0719 19:51:23.289589 32432 net.cpp:408] data_data_0_split -> data_data_0_split_5
I0719 19:51:23.289592 32432 net.cpp:408] data_data_0_split -> data_data_0_split_6
I0719 19:51:23.289676 32432 net.cpp:150] Setting up data_data_0_split
I0719 19:51:23.289681 32432 net.cpp:157] Top shape: 8 3 300 300 (2160000)
I0719 19:51:23.289685 32432 net.cpp:157] Top shape: 8 3 300 300 (2160000)
I0719 19:51:23.289686 32432 net.cpp:157] Top shape: 8 3 300 300 (2160000)
I0719 19:51:23.289690 32432 net.cpp:157] Top shape: 8 3 300 300 (2160000)
I0719 19:51:23.289691 32432 net.cpp:157] Top shape: 8 3 300 300 (2160000)
I0719 19:51:23.289693 32432 net.cpp:157] Top shape: 8 3 300 300 (2160000)
I0719 19:51:23.289695 32432 net.cpp:157] Top shape: 8 3 300 300 (2160000)
I0719 19:51:23.289710 32432 net.cpp:165] Memory required for data: 69120064
I0719 19:51:23.289713 32432 layer_factory.hpp:77] Creating layer conv1_1
I0719 19:51:23.289722 32432 net.cpp:100] Creating Layer conv1_1
I0719 19:51:23.289726 32432 net.cpp:434] conv1_1 <- data_data_0_split_0
I0719 19:51:23.289729 32432 net.cpp:408] conv1_1 -> conv1_1
I0719 19:51:23.289937 32432 net.cpp:150] Setting up conv1_1
I0719 19:51:23.289942 32432 net.cpp:157] Top shape: 8 64 300 300 (46080000)
I0719 19:51:23.289944 32432 net.cpp:165] Memory required for data: 253440064
I0719 19:51:23.289952 32432 layer_factory.hpp:77] Creating layer relu1_1
I0719 19:51:23.289955 32432 net.cpp:100] Creating Layer relu1_1
I0719 19:51:23.289958 32432 net.cpp:434] relu1_1 <- conv1_1
I0719 19:51:23.289959 32432 net.cpp:395] relu1_1 -> conv1_1 (in-place)
I0719 19:51:23.289964 32432 net.cpp:150] Setting up relu1_1
I0719 19:51:23.289966 32432 net.cpp:157] Top shape: 8 64 300 300 (46080000)
I0719 19:51:23.289968 32432 net.cpp:165] Memory required for data: 437760064
I0719 19:51:23.289969 32432 layer_factory.hpp:77] Creating layer conv1_2
I0719 19:51:23.289976 32432 net.cpp:100] Creating Layer conv1_2
I0719 19:51:23.289978 32432 net.cpp:434] conv1_2 <- conv1_1
I0719 19:51:23.289981 32432 net.cpp:408] conv1_2 -> conv1_2
I0719 19:51:23.290258 32432 net.cpp:150] Setting up conv1_2
I0719 19:51:23.290263 32432 net.cpp:157] Top shape: 8 64 300 300 (46080000)
I0719 19:51:23.290266 32432 net.cpp:165] Memory required for data: 622080064
I0719 19:51:23.290269 32432 layer_factory.hpp:77] Creating layer relu1_2
I0719 19:51:23.290273 32432 net.cpp:100] Creating Layer relu1_2
I0719 19:51:23.290277 32432 net.cpp:434] relu1_2 <- conv1_2
I0719 19:51:23.290278 32432 net.cpp:395] relu1_2 -> conv1_2 (in-place)
I0719 19:51:23.290283 32432 net.cpp:150] Setting up relu1_2
I0719 19:51:23.290287 32432 net.cpp:157] Top shape: 8 64 300 300 (46080000)
I0719 19:51:23.290288 32432 net.cpp:165] Memory required for data: 806400064
I0719 19:51:23.290290 32432 layer_factory.hpp:77] Creating layer pool1
I0719 19:51:23.290294 32432 net.cpp:100] Creating Layer pool1
I0719 19:51:23.290297 32432 net.cpp:434] pool1 <- conv1_2
I0719 19:51:23.290299 32432 net.cpp:408] pool1 -> pool1
I0719 19:51:23.290320 32432 net.cpp:150] Setting up pool1
I0719 19:51:23.290324 32432 net.cpp:157] Top shape: 8 64 150 150 (11520000)
I0719 19:51:23.290326 32432 net.cpp:165] Memory required for data: 852480064
I0719 19:51:23.290328 32432 layer_factory.hpp:77] Creating layer conv2_1
I0719 19:51:23.290333 32432 net.cpp:100] Creating Layer conv2_1
I0719 19:51:23.290334 32432 net.cpp:434] conv2_1 <- pool1
I0719 19:51:23.290338 32432 net.cpp:408] conv2_1 -> conv2_1
I0719 19:51:23.290716 32432 net.cpp:150] Setting up conv2_1
I0719 19:51:23.290721 32432 net.cpp:157] Top shape: 8 128 150 150 (23040000)
I0719 19:51:23.290724 32432 net.cpp:165] Memory required for data: 944640064
I0719 19:51:23.290729 32432 layer_factory.hpp:77] Creating layer relu2_1
I0719 19:51:23.290732 32432 net.cpp:100] Creating Layer relu2_1
I0719 19:51:23.290735 32432 net.cpp:434] relu2_1 <- conv2_1
I0719 19:51:23.290737 32432 net.cpp:395] relu2_1 -> conv2_1 (in-place)
I0719 19:51:23.290741 32432 net.cpp:150] Setting up relu2_1
I0719 19:51:23.290745 32432 net.cpp:157] Top shape: 8 128 150 150 (23040000)
I0719 19:51:23.290747 32432 net.cpp:165] Memory required for data: 1036800064
I0719 19:51:23.290748 32432 layer_factory.hpp:77] Creating layer conv2_2
I0719 19:51:23.290752 32432 net.cpp:100] Creating Layer conv2_2
I0719 19:51:23.290756 32432 net.cpp:434] conv2_2 <- conv2_1
I0719 19:51:23.290760 32432 net.cpp:408] conv2_2 -> conv2_2
I0719 19:51:23.296308 32432 net.cpp:150] Setting up conv2_2
I0719 19:51:23.296321 32432 net.cpp:157] Top shape: 8 128 150 150 (23040000)
I0719 19:51:23.296324 32432 net.cpp:165] Memory required for data: 1128960064
I0719 19:51:23.296329 32432 layer_factory.hpp:77] Creating layer relu2_2
I0719 19:51:23.296332 32432 net.cpp:100] Creating Layer relu2_2
I0719 19:51:23.296334 32432 net.cpp:434] relu2_2 <- conv2_2
I0719 19:51:23.296351 32432 net.cpp:395] relu2_2 -> conv2_2 (in-place)
I0719 19:51:23.296355 32432 net.cpp:150] Setting up relu2_2
I0719 19:51:23.296358 32432 net.cpp:157] Top shape: 8 128 150 150 (23040000)
I0719 19:51:23.296360 32432 net.cpp:165] Memory required for data: 1221120064
I0719 19:51:23.296363 32432 layer_factory.hpp:77] Creating layer pool2
I0719 19:51:23.296366 32432 net.cpp:100] Creating Layer pool2
I0719 19:51:23.296370 32432 net.cpp:434] pool2 <- conv2_2
I0719 19:51:23.296372 32432 net.cpp:408] pool2 -> pool2
I0719 19:51:23.296393 32432 net.cpp:150] Setting up pool2
I0719 19:51:23.296397 32432 net.cpp:157] Top shape: 8 128 75 75 (5760000)
I0719 19:51:23.296398 32432 net.cpp:165] Memory required for data: 1244160064
I0719 19:51:23.296401 32432 layer_factory.hpp:77] Creating layer conv3_1
I0719 19:51:23.296406 32432 net.cpp:100] Creating Layer conv3_1
I0719 19:51:23.296408 32432 net.cpp:434] conv3_1 <- pool2
I0719 19:51:23.296411 32432 net.cpp:408] conv3_1 -> conv3_1
I0719 19:51:23.297433 32432 net.cpp:150] Setting up conv3_1
I0719 19:51:23.297438 32432 net.cpp:157] Top shape: 8 256 75 75 (11520000)
I0719 19:51:23.297441 32432 net.cpp:165] Memory required for data: 1290240064
I0719 19:51:23.297446 32432 layer_factory.hpp:77] Creating layer relu3_1
I0719 19:51:23.297449 32432 net.cpp:100] Creating Layer relu3_1
I0719 19:51:23.297452 32432 net.cpp:434] relu3_1 <- conv3_1
I0719 19:51:23.297454 32432 net.cpp:395] relu3_1 -> conv3_1 (in-place)
I0719 19:51:23.297457 32432 net.cpp:150] Setting up relu3_1
I0719 19:51:23.297461 32432 net.cpp:157] Top shape: 8 256 75 75 (11520000)
I0719 19:51:23.297462 32432 net.cpp:165] Memory required for data: 1336320064
I0719 19:51:23.297464 32432 layer_factory.hpp:77] Creating layer conv3_2
I0719 19:51:23.297468 32432 net.cpp:100] Creating Layer conv3_2
I0719 19:51:23.297471 32432 net.cpp:434] conv3_2 <- conv3_1
I0719 19:51:23.297473 32432 net.cpp:408] conv3_2 -> conv3_2
I0719 19:51:23.300222 32432 net.cpp:150] Setting up conv3_2
I0719 19:51:23.300256 32432 net.cpp:157] Top shape: 8 256 75 75 (11520000)
I0719 19:51:23.300258 32432 net.cpp:165] Memory required for data: 1382400064
I0719 19:51:23.300263 32432 layer_factory.hpp:77] Creating layer relu3_2
I0719 19:51:23.300268 32432 net.cpp:100] Creating Layer relu3_2
I0719 19:51:23.300272 32432 net.cpp:434] relu3_2 <- conv3_2
I0719 19:51:23.300276 32432 net.cpp:395] relu3_2 -> conv3_2 (in-place)
I0719 19:51:23.300282 32432 net.cpp:150] Setting up relu3_2
I0719 19:51:23.300284 32432 net.cpp:157] Top shape: 8 256 75 75 (11520000)
I0719 19:51:23.300287 32432 net.cpp:165] Memory required for data: 1428480064
I0719 19:51:23.300288 32432 layer_factory.hpp:77] Creating layer conv3_3
I0719 19:51:23.300297 32432 net.cpp:100] Creating Layer conv3_3
I0719 19:51:23.300300 32432 net.cpp:434] conv3_3 <- conv3_2
I0719 19:51:23.300303 32432 net.cpp:408] conv3_3 -> conv3_3
I0719 19:51:23.302966 32432 net.cpp:150] Setting up conv3_3
I0719 19:51:23.302978 32432 net.cpp:157] Top shape: 8 256 75 75 (11520000)
I0719 19:51:23.302980 32432 net.cpp:165] Memory required for data: 1474560064
I0719 19:51:23.302984 32432 layer_factory.hpp:77] Creating layer relu3_3
I0719 19:51:23.302989 32432 net.cpp:100] Creating Layer relu3_3
I0719 19:51:23.302992 32432 net.cpp:434] relu3_3 <- conv3_3
I0719 19:51:23.302996 32432 net.cpp:395] relu3_3 -> conv3_3 (in-place)
I0719 19:51:23.303000 32432 net.cpp:150] Setting up relu3_3
I0719 19:51:23.303004 32432 net.cpp:157] Top shape: 8 256 75 75 (11520000)
I0719 19:51:23.303005 32432 net.cpp:165] Memory required for data: 1520640064
I0719 19:51:23.303007 32432 layer_factory.hpp:77] Creating layer pool3
I0719 19:51:23.303011 32432 net.cpp:100] Creating Layer pool3
I0719 19:51:23.303014 32432 net.cpp:434] pool3 <- conv3_3
I0719 19:51:23.303017 32432 net.cpp:408] pool3 -> pool3
I0719 19:51:23.303040 32432 net.cpp:150] Setting up pool3
I0719 19:51:23.303043 32432 net.cpp:157] Top shape: 8 256 38 38 (2957312)
I0719 19:51:23.303045 32432 net.cpp:165] Memory required for data: 1532469312
I0719 19:51:23.303047 32432 layer_factory.hpp:77] Creating layer conv4_1
I0719 19:51:23.303066 32432 net.cpp:100] Creating Layer conv4_1
I0719 19:51:23.303068 32432 net.cpp:434] conv4_1 <- pool3
I0719 19:51:23.303071 32432 net.cpp:408] conv4_1 -> conv4_1
I0719 19:51:23.309820 32432 net.cpp:150] Setting up conv4_1
I0719 19:51:23.309860 32432 net.cpp:157] Top shape: 8 512 38 38 (5914624)
I0719 19:51:23.309862 32432 net.cpp:165] Memory required for data: 1556127808
I0719 19:51:23.309871 32432 layer_factory.hpp:77] Creating layer relu4_1
I0719 19:51:23.309881 32432 net.cpp:100] Creating Layer relu4_1
I0719 19:51:23.309886 32432 net.cpp:434] relu4_1 <- conv4_1
I0719 19:51:23.309895 32432 net.cpp:395] relu4_1 -> conv4_1 (in-place)
I0719 19:51:23.309903 32432 net.cpp:150] Setting up relu4_1
I0719 19:51:23.309907 32432 net.cpp:157] Top shape: 8 512 38 38 (5914624)
I0719 19:51:23.309908 32432 net.cpp:165] Memory required for data: 1579786304
I0719 19:51:23.309911 32432 layer_factory.hpp:77] Creating layer conv4_2
I0719 19:51:23.309921 32432 net.cpp:100] Creating Layer conv4_2
I0719 19:51:23.309924 32432 net.cpp:434] conv4_2 <- conv4_1
I0719 19:51:23.309928 32432 net.cpp:408] conv4_2 -> conv4_2
I0719 19:51:23.324659 32432 net.cpp:150] Setting up conv4_2
I0719 19:51:23.324718 32432 net.cpp:157] Top shape: 8 512 38 38 (5914624)
I0719 19:51:23.324721 32432 net.cpp:165] Memory required for data: 1603444800
I0719 19:51:23.324743 32432 layer_factory.hpp:77] Creating layer relu4_2
I0719 19:51:23.324760 32432 net.cpp:100] Creating Layer relu4_2
I0719 19:51:23.324766 32432 net.cpp:434] relu4_2 <- conv4_2
I0719 19:51:23.324774 32432 net.cpp:395] relu4_2 -> conv4_2 (in-place)
I0719 19:51:23.324785 32432 net.cpp:150] Setting up relu4_2
I0719 19:51:23.324789 32432 net.cpp:157] Top shape: 8 512 38 38 (5914624)
I0719 19:51:23.324790 32432 net.cpp:165] Memory required for data: 1627103296
I0719 19:51:23.324793 32432 layer_factory.hpp:77] Creating layer conv4_3
I0719 19:51:23.324807 32432 net.cpp:100] Creating Layer conv4_3
I0719 19:51:23.324810 32432 net.cpp:434] conv4_3 <- conv4_2
I0719 19:51:23.324815 32432 net.cpp:408] conv4_3 -> conv4_3
I0719 19:51:23.339262 32432 net.cpp:150] Setting up conv4_3
I0719 19:51:23.339301 32432 net.cpp:157] Top shape: 8 512 38 38 (5914624)
I0719 19:51:23.339305 32432 net.cpp:165] Memory required for data: 1650761792
I0719 19:51:23.339313 32432 layer_factory.hpp:77] Creating layer relu4_3
I0719 19:51:23.339325 32432 net.cpp:100] Creating Layer relu4_3
I0719 19:51:23.339330 32432 net.cpp:434] relu4_3 <- conv4_3
I0719 19:51:23.339339 32432 net.cpp:395] relu4_3 -> conv4_3 (in-place)
I0719 19:51:23.339346 32432 net.cpp:150] Setting up relu4_3
I0719 19:51:23.339349 32432 net.cpp:157] Top shape: 8 512 38 38 (5914624)
I0719 19:51:23.339351 32432 net.cpp:165] Memory required for data: 1674420288
I0719 19:51:23.339354 32432 layer_factory.hpp:77] Creating layer conv4_3_relu4_3_0_split
I0719 19:51:23.339357 32432 net.cpp:100] Creating Layer conv4_3_relu4_3_0_split
I0719 19:51:23.339359 32432 net.cpp:434] conv4_3_relu4_3_0_split <- conv4_3
I0719 19:51:23.339363 32432 net.cpp:408] conv4_3_relu4_3_0_split -> conv4_3_relu4_3_0_split_0
I0719 19:51:23.339370 32432 net.cpp:408] conv4_3_relu4_3_0_split -> conv4_3_relu4_3_0_split_1
I0719 19:51:23.339406 32432 net.cpp:150] Setting up conv4_3_relu4_3_0_split
I0719 19:51:23.339411 32432 net.cpp:157] Top shape: 8 512 38 38 (5914624)
I0719 19:51:23.339412 32432 net.cpp:157] Top shape: 8 512 38 38 (5914624)
I0719 19:51:23.339414 32432 net.cpp:165] Memory required for data: 1721737280
I0719 19:51:23.339416 32432 layer_factory.hpp:77] Creating layer pool4
I0719 19:51:23.339421 32432 net.cpp:100] Creating Layer pool4
I0719 19:51:23.339422 32432 net.cpp:434] pool4 <- conv4_3_relu4_3_0_split_0
I0719 19:51:23.339426 32432 net.cpp:408] pool4 -> pool4
I0719 19:51:23.339447 32432 net.cpp:150] Setting up pool4
I0719 19:51:23.339450 32432 net.cpp:157] Top shape: 8 512 19 19 (1478656)
I0719 19:51:23.339452 32432 net.cpp:165] Memory required for data: 1727651904
I0719 19:51:23.339454 32432 layer_factory.hpp:77] Creating layer conv5_1
I0719 19:51:23.339486 32432 net.cpp:100] Creating Layer conv5_1
I0719 19:51:23.339489 32432 net.cpp:434] conv5_1 <- pool4
I0719 19:51:23.339493 32432 net.cpp:408] conv5_1 -> conv5_1
I0719 19:51:23.351033 32432 net.cpp:150] Setting up conv5_1
I0719 19:51:23.351068 32432 net.cpp:157] Top shape: 8 512 19 19 (1478656)
I0719 19:51:23.351071 32432 net.cpp:165] Memory required for data: 1733566528
I0719 19:51:23.351083 32432 layer_factory.hpp:77] Creating layer relu5_1
I0719 19:51:23.351094 32432 net.cpp:100] Creating Layer relu5_1
I0719 19:51:23.351099 32432 net.cpp:434] relu5_1 <- conv5_1
I0719 19:51:23.351107 32432 net.cpp:395] relu5_1 -> conv5_1 (in-place)
I0719 19:51:23.351119 32432 net.cpp:150] Setting up relu5_1
I0719 19:51:23.351120 32432 net.cpp:157] Top shape: 8 512 19 19 (1478656)
I0719 19:51:23.351122 32432 net.cpp:165] Memory required for data: 1739481152
I0719 19:51:23.351125 32432 layer_factory.hpp:77] Creating layer conv5_2
I0719 19:51:23.351136 32432 net.cpp:100] Creating Layer conv5_2
I0719 19:51:23.351138 32432 net.cpp:434] conv5_2 <- conv5_1
I0719 19:51:23.351142 32432 net.cpp:408] conv5_2 -> conv5_2
I0719 19:51:23.368337 32432 net.cpp:150] Setting up conv5_2
I0719 19:51:23.368368 32432 net.cpp:157] Top shape: 8 512 19 19 (1478656)
I0719 19:51:23.368371 32432 net.cpp:165] Memory required for data: 1745395776
I0719 19:51:23.368379 32432 layer_factory.hpp:77] Creating layer relu5_2
I0719 19:51:23.368389 32432 net.cpp:100] Creating Layer relu5_2
I0719 19:51:23.368396 32432 net.cpp:434] relu5_2 <- conv5_2
I0719 19:51:23.368400 32432 net.cpp:395] relu5_2 -> conv5_2 (in-place)
I0719 19:51:23.368408 32432 net.cpp:150] Setting up relu5_2
I0719 19:51:23.368412 32432 net.cpp:157] Top shape: 8 512 19 19 (1478656)
I0719 19:51:23.368413 32432 net.cpp:165] Memory required for data: 1751310400
I0719 19:51:23.368415 32432 layer_factory.hpp:77] Creating layer conv5_3
I0719 19:51:23.368424 32432 net.cpp:100] Creating Layer conv5_3
I0719 19:51:23.368427 32432 net.cpp:434] conv5_3 <- conv5_2
I0719 19:51:23.368430 32432 net.cpp:408] conv5_3 -> conv5_3
I0719 19:51:23.386483 32432 net.cpp:150] Setting up conv5_3
I0719 19:51:23.386545 32432 net.cpp:157] Top shape: 8 512 19 19 (1478656)
I0719 19:51:23.386554 32432 net.cpp:165] Memory required for data: 1757225024
I0719 19:51:23.386570 32432 layer_factory.hpp:77] Creating layer relu5_3
I0719 19:51:23.386590 32432 net.cpp:100] Creating Layer relu5_3
I0719 19:51:23.386600 32432 net.cpp:434] relu5_3 <- conv5_3
I0719 19:51:23.386611 32432 net.cpp:395] relu5_3 -> conv5_3 (in-place)
I0719 19:51:23.386624 32432 net.cpp:150] Setting up relu5_3
I0719 19:51:23.386632 32432 net.cpp:157] Top shape: 8 512 19 19 (1478656)
I0719 19:51:23.386641 32432 net.cpp:165] Memory required for data: 1763139648
I0719 19:51:23.386647 32432 layer_factory.hpp:77] Creating layer pool5
I0719 19:51:23.386656 32432 net.cpp:100] Creating Layer pool5
I0719 19:51:23.386663 32432 net.cpp:434] pool5 <- conv5_3
I0719 19:51:23.386672 32432 net.cpp:408] pool5 -> pool5
I0719 19:51:23.386708 32432 net.cpp:150] Setting up pool5
I0719 19:51:23.386718 32432 net.cpp:157] Top shape: 8 512 19 19 (1478656)
I0719 19:51:23.386724 32432 net.cpp:165] Memory required for data: 1769054272
I0719 19:51:23.386731 32432 layer_factory.hpp:77] Creating layer fc6
I0719 19:51:23.386745 32432 net.cpp:100] Creating Layer fc6
I0719 19:51:23.386754 32432 net.cpp:434] fc6 <- pool5
I0719 19:51:23.386762 32432 net.cpp:408] fc6 -> fc6
I0719 19:51:23.408844 32432 net.cpp:150] Setting up fc6
I0719 19:51:23.408885 32432 net.cpp:157] Top shape: 8 1024 19 19 (2957312)
I0719 19:51:23.408888 32432 net.cpp:165] Memory required for data: 1780883520
I0719 19:51:23.408898 32432 layer_factory.hpp:77] Creating layer relu6
I0719 19:51:23.408910 32432 net.cpp:100] Creating Layer relu6
I0719 19:51:23.408915 32432 net.cpp:434] relu6 <- fc6
I0719 19:51:23.408922 32432 net.cpp:395] relu6 -> fc6 (in-place)
I0719 19:51:23.408932 32432 net.cpp:150] Setting up relu6
I0719 19:51:23.408934 32432 net.cpp:157] Top shape: 8 1024 19 19 (2957312)
I0719 19:51:23.408936 32432 net.cpp:165] Memory required for data: 1792712768
I0719 19:51:23.408972 32432 layer_factory.hpp:77] Creating layer fc7
I0719 19:51:23.408982 32432 net.cpp:100] Creating Layer fc7
I0719 19:51:23.408985 32432 net.cpp:434] fc7 <- fc6
I0719 19:51:23.408988 32432 net.cpp:408] fc7 -> fc7
I0719 19:51:23.414258 32432 net.cpp:150] Setting up fc7
I0719 19:51:23.414306 32432 net.cpp:157] Top shape: 8 1024 19 19 (2957312)
I0719 19:51:23.414309 32432 net.cpp:165] Memory required for data: 1804542016
I0719 19:51:23.414319 32432 layer_factory.hpp:77] Creating layer relu7
I0719 19:51:23.414327 32432 net.cpp:100] Creating Layer relu7
I0719 19:51:23.414332 32432 net.cpp:434] relu7 <- fc7
I0719 19:51:23.414340 32432 net.cpp:395] relu7 -> fc7 (in-place)
I0719 19:51:23.414350 32432 net.cpp:150] Setting up relu7
I0719 19:51:23.414352 32432 net.cpp:157] Top shape: 8 1024 19 19 (2957312)
I0719 19:51:23.414353 32432 net.cpp:165] Memory required for data: 1816371264
I0719 19:51:23.414356 32432 layer_factory.hpp:77] Creating layer fc7_relu7_0_split
I0719 19:51:23.414363 32432 net.cpp:100] Creating Layer fc7_relu7_0_split
I0719 19:51:23.414366 32432 net.cpp:434] fc7_relu7_0_split <- fc7
I0719 19:51:23.414372 32432 net.cpp:408] fc7_relu7_0_split -> fc7_relu7_0_split_0
I0719 19:51:23.414377 32432 net.cpp:408] fc7_relu7_0_split -> fc7_relu7_0_split_1
I0719 19:51:23.414391 32432 net.cpp:408] fc7_relu7_0_split -> fc7_relu7_0_split_2
I0719 19:51:23.414396 32432 net.cpp:408] fc7_relu7_0_split -> fc7_relu7_0_split_3
I0719 19:51:23.414443 32432 net.cpp:150] Setting up fc7_relu7_0_split
I0719 19:51:23.414448 32432 net.cpp:157] Top shape: 8 1024 19 19 (2957312)
I0719 19:51:23.414450 32432 net.cpp:157] Top shape: 8 1024 19 19 (2957312)
I0719 19:51:23.414453 32432 net.cpp:157] Top shape: 8 1024 19 19 (2957312)
I0719 19:51:23.414455 32432 net.cpp:157] Top shape: 8 1024 19 19 (2957312)
I0719 19:51:23.414458 32432 net.cpp:165] Memory required for data: 1863688256
I0719 19:51:23.414460 32432 layer_factory.hpp:77] Creating layer conv6_1
I0719 19:51:23.414472 32432 net.cpp:100] Creating Layer conv6_1
I0719 19:51:23.414475 32432 net.cpp:434] conv6_1 <- fc7_relu7_0_split_0
I0719 19:51:23.414479 32432 net.cpp:408] conv6_1 -> conv6_1
I0719 19:51:23.416390 32432 net.cpp:150] Setting up conv6_1
I0719 19:51:23.416406 32432 net.cpp:157] Top shape: 8 256 19 19 (739328)
I0719 19:51:23.416409 32432 net.cpp:165] Memory required for data: 1866645568
I0719 19:51:23.416414 32432 layer_factory.hpp:77] Creating layer conv6_1_relu
I0719 19:51:23.416424 32432 net.cpp:100] Creating Layer conv6_1_relu
I0719 19:51:23.416429 32432 net.cpp:434] conv6_1_relu <- conv6_1
I0719 19:51:23.416433 32432 net.cpp:395] conv6_1_relu -> conv6_1 (in-place)
I0719 19:51:23.416440 32432 net.cpp:150] Setting up conv6_1_relu
I0719 19:51:23.416443 32432 net.cpp:157] Top shape: 8 256 19 19 (739328)
I0719 19:51:23.416445 32432 net.cpp:165] Memory required for data: 1869602880
I0719 19:51:23.416447 32432 layer_factory.hpp:77] Creating layer conv6_2
I0719 19:51:23.416456 32432 net.cpp:100] Creating Layer conv6_2
I0719 19:51:23.416460 32432 net.cpp:434] conv6_2 <- conv6_1
I0719 19:51:23.416465 32432 net.cpp:408] conv6_2 -> conv6_2
I0719 19:51:23.422469 32432 net.cpp:150] Setting up conv6_2
I0719 19:51:23.422515 32432 net.cpp:157] Top shape: 8 512 10 10 (409600)
I0719 19:51:23.422519 32432 net.cpp:165] Memory required for data: 1871241280
I0719 19:51:23.422536 32432 layer_factory.hpp:77] Creating layer conv6_2_relu
I0719 19:51:23.422550 32432 net.cpp:100] Creating Layer conv6_2_relu
I0719 19:51:23.422556 32432 net.cpp:434] conv6_2_relu <- conv6_2
I0719 19:51:23.422562 32432 net.cpp:395] conv6_2_relu -> conv6_2 (in-place)
I0719 19:51:23.422578 32432 net.cpp:150] Setting up conv6_2_relu
I0719 19:51:23.422581 32432 net.cpp:157] Top shape: 8 512 10 10 (409600)
I0719 19:51:23.422582 32432 net.cpp:165] Memory required for data: 1872879680
I0719 19:51:23.422586 32432 layer_factory.hpp:77] Creating layer conv6_2_conv6_2_relu_0_split
I0719 19:51:23.422592 32432 net.cpp:100] Creating Layer conv6_2_conv6_2_relu_0_split
I0719 19:51:23.422595 32432 net.cpp:434] conv6_2_conv6_2_relu_0_split <- conv6_2
I0719 19:51:23.422633 32432 net.cpp:408] conv6_2_conv6_2_relu_0_split -> conv6_2_conv6_2_relu_0_split_0
I0719 19:51:23.422639 32432 net.cpp:408] conv6_2_conv6_2_relu_0_split -> conv6_2_conv6_2_relu_0_split_1
I0719 19:51:23.422644 32432 net.cpp:408] conv6_2_conv6_2_relu_0_split -> conv6_2_conv6_2_relu_0_split_2
I0719 19:51:23.422648 32432 net.cpp:408] conv6_2_conv6_2_relu_0_split -> conv6_2_conv6_2_relu_0_split_3
I0719 19:51:23.422706 32432 net.cpp:150] Setting up conv6_2_conv6_2_relu_0_split
I0719 19:51:23.422711 32432 net.cpp:157] Top shape: 8 512 10 10 (409600)
I0719 19:51:23.422713 32432 net.cpp:157] Top shape: 8 512 10 10 (409600)
I0719 19:51:23.422719 32432 net.cpp:157] Top shape: 8 512 10 10 (409600)
I0719 19:51:23.422720 32432 net.cpp:157] Top shape: 8 512 10 10 (409600)
I0719 19:51:23.422724 32432 net.cpp:165] Memory required for data: 1879433280
I0719 19:51:23.422725 32432 layer_factory.hpp:77] Creating layer conv7_1
I0719 19:51:23.422739 32432 net.cpp:100] Creating Layer conv7_1
I0719 19:51:23.422741 32432 net.cpp:434] conv7_1 <- conv6_2_conv6_2_relu_0_split_0
I0719 19:51:23.422746 32432 net.cpp:408] conv7_1 -> conv7_1
I0719 19:51:23.423238 32432 net.cpp:150] Setting up conv7_1
I0719 19:51:23.423249 32432 net.cpp:157] Top shape: 8 128 10 10 (102400)
I0719 19:51:23.423250 32432 net.cpp:165] Memory required for data: 1879842880
I0719 19:51:23.423255 32432 layer_factory.hpp:77] Creating layer conv7_1_relu
I0719 19:51:23.423261 32432 net.cpp:100] Creating Layer conv7_1_relu
I0719 19:51:23.423264 32432 net.cpp:434] conv7_1_relu <- conv7_1
I0719 19:51:23.423267 32432 net.cpp:395] conv7_1_relu -> conv7_1 (in-place)
I0719 19:51:23.423272 32432 net.cpp:150] Setting up conv7_1_relu
I0719 19:51:23.423274 32432 net.cpp:157] Top shape: 8 128 10 10 (102400)
I0719 19:51:23.423276 32432 net.cpp:165] Memory required for data: 1880252480
I0719 19:51:23.423279 32432 layer_factory.hpp:77] Creating layer conv7_2
I0719 19:51:23.423285 32432 net.cpp:100] Creating Layer conv7_2
I0719 19:51:23.423286 32432 net.cpp:434] conv7_2 <- conv7_1
I0719 19:51:23.423291 32432 net.cpp:408] conv7_2 -> conv7_2
I0719 19:51:23.426990 32432 net.cpp:150] Setting up conv7_2
I0719 19:51:23.427006 32432 net.cpp:157] Top shape: 8 256 5 5 (51200)
I0719 19:51:23.427008 32432 net.cpp:165] Memory required for data: 1880457280
I0719 19:51:23.427014 32432 layer_factory.hpp:77] Creating layer conv7_2_relu
I0719 19:51:23.427022 32432 net.cpp:100] Creating Layer conv7_2_relu
I0719 19:51:23.427026 32432 net.cpp:434] conv7_2_relu <- conv7_2
I0719 19:51:23.427031 32432 net.cpp:395] conv7_2_relu -> conv7_2 (in-place)
I0719 19:51:23.427037 32432 net.cpp:150] Setting up conv7_2_relu
I0719 19:51:23.427039 32432 net.cpp:157] Top shape: 8 256 5 5 (51200)
I0719 19:51:23.427042 32432 net.cpp:165] Memory required for data: 1880662080
I0719 19:51:23.427043 32432 layer_factory.hpp:77] Creating layer conv7_2_conv7_2_relu_0_split
I0719 19:51:23.427048 32432 net.cpp:100] Creating Layer conv7_2_conv7_2_relu_0_split
I0719 19:51:23.427052 32432 net.cpp:434] conv7_2_conv7_2_relu_0_split <- conv7_2
I0719 19:51:23.427055 32432 net.cpp:408] conv7_2_conv7_2_relu_0_split -> conv7_2_conv7_2_relu_0_split_0
I0719 19:51:23.427062 32432 net.cpp:408] conv7_2_conv7_2_relu_0_split -> conv7_2_conv7_2_relu_0_split_1
I0719 19:51:23.427065 32432 net.cpp:408] conv7_2_conv7_2_relu_0_split -> conv7_2_conv7_2_relu_0_split_2
I0719 19:51:23.427069 32432 net.cpp:408] conv7_2_conv7_2_relu_0_split -> conv7_2_conv7_2_relu_0_split_3
I0719 19:51:23.427111 32432 net.cpp:150] Setting up conv7_2_conv7_2_relu_0_split
I0719 19:51:23.427115 32432 net.cpp:157] Top shape: 8 256 5 5 (51200)
I0719 19:51:23.427119 32432 net.cpp:157] Top shape: 8 256 5 5 (51200)
I0719 19:51:23.427120 32432 net.cpp:157] Top shape: 8 256 5 5 (51200)
I0719 19:51:23.427122 32432 net.cpp:157] Top shape: 8 256 5 5 (51200)
I0719 19:51:23.427124 32432 net.cpp:165] Memory required for data: 1881481280
I0719 19:51:23.427126 32432 layer_factory.hpp:77] Creating layer conv8_1
I0719 19:51:23.427134 32432 net.cpp:100] Creating Layer conv8_1
I0719 19:51:23.427146 32432 net.cpp:434] conv8_1 <- conv7_2_conv7_2_relu_0_split_0
I0719 19:51:23.427151 32432 net.cpp:408] conv8_1 -> conv8_1
I0719 19:51:23.427374 32432 net.cpp:150] Setting up conv8_1
I0719 19:51:23.427379 32432 net.cpp:157] Top shape: 8 128 5 5 (25600)
I0719 19:51:23.427382 32432 net.cpp:165] Memory required for data: 1881583680
I0719 19:51:23.427386 32432 layer_factory.hpp:77] Creating layer conv8_1_relu
I0719 19:51:23.427389 32432 net.cpp:100] Creating Layer conv8_1_relu
I0719 19:51:23.427392 32432 net.cpp:434] conv8_1_relu <- conv8_1
I0719 19:51:23.427395 32432 net.cpp:395] conv8_1_relu -> conv8_1 (in-place)
I0719 19:51:23.427398 32432 net.cpp:150] Setting up conv8_1_relu
I0719 19:51:23.427402 32432 net.cpp:157] Top shape: 8 128 5 5 (25600)
I0719 19:51:23.427403 32432 net.cpp:165] Memory required for data: 1881686080
I0719 19:51:23.427405 32432 layer_factory.hpp:77] Creating layer conv8_2
I0719 19:51:23.427413 32432 net.cpp:100] Creating Layer conv8_2
I0719 19:51:23.427415 32432 net.cpp:434] conv8_2 <- conv8_1
I0719 19:51:23.427419 32432 net.cpp:408] conv8_2 -> conv8_2
I0719 19:51:23.431866 32432 net.cpp:150] Setting up conv8_2
I0719 19:51:23.431897 32432 net.cpp:157] Top shape: 8 256 3 3 (18432)
I0719 19:51:23.431910 32432 net.cpp:165] Memory required for data: 1881759808
I0719 19:51:23.431923 32432 layer_factory.hpp:77] Creating layer conv8_2_relu
I0719 19:51:23.431937 32432 net.cpp:100] Creating Layer conv8_2_relu
I0719 19:51:23.431947 32432 net.cpp:434] conv8_2_relu <- conv8_2
I0719 19:51:23.431960 32432 net.cpp:395] conv8_2_relu -> conv8_2 (in-place)
I0719 19:51:23.431974 32432 net.cpp:150] Setting up conv8_2_relu
I0719 19:51:23.431987 32432 net.cpp:157] Top shape: 8 256 3 3 (18432)
I0719 19:51:23.431996 32432 net.cpp:165] Memory required for data: 1881833536
I0719 19:51:23.432006 32432 layer_factory.hpp:77] Creating layer conv8_2_conv8_2_relu_0_split
I0719 19:51:23.432018 32432 net.cpp:100] Creating Layer conv8_2_conv8_2_relu_0_split
I0719 19:51:23.432029 32432 net.cpp:434] conv8_2_conv8_2_relu_0_split <- conv8_2
I0719 19:51:23.432044 32432 net.cpp:408] conv8_2_conv8_2_relu_0_split -> conv8_2_conv8_2_relu_0_split_0
I0719 19:51:23.432056 32432 net.cpp:408] conv8_2_conv8_2_relu_0_split -> conv8_2_conv8_2_relu_0_split_1
I0719 19:51:23.432070 32432 net.cpp:408] conv8_2_conv8_2_relu_0_split -> conv8_2_conv8_2_relu_0_split_2
I0719 19:51:23.432085 32432 net.cpp:408] conv8_2_conv8_2_relu_0_split -> conv8_2_conv8_2_relu_0_split_3
I0719 19:51:23.432127 32432 net.cpp:150] Setting up conv8_2_conv8_2_relu_0_split
I0719 19:51:23.432140 32432 net.cpp:157] Top shape: 8 256 3 3 (18432)
I0719 19:51:23.432150 32432 net.cpp:157] Top shape: 8 256 3 3 (18432)
I0719 19:51:23.432162 32432 net.cpp:157] Top shape: 8 256 3 3 (18432)
I0719 19:51:23.432171 32432 net.cpp:157] Top shape: 8 256 3 3 (18432)
I0719 19:51:23.432180 32432 net.cpp:165] Memory required for data: 1882128448
I0719 19:51:23.432193 32432 layer_factory.hpp:77] Creating layer conv9_1
I0719 19:51:23.432207 32432 net.cpp:100] Creating Layer conv9_1
I0719 19:51:23.432219 32432 net.cpp:434] conv9_1 <- conv8_2_conv8_2_relu_0_split_0
I0719 19:51:23.432231 32432 net.cpp:408] conv9_1 -> conv9_1
I0719 19:51:23.432467 32432 net.cpp:150] Setting up conv9_1
I0719 19:51:23.432482 32432 net.cpp:157] Top shape: 8 128 3 3 (9216)
I0719 19:51:23.432492 32432 net.cpp:165] Memory required for data: 1882165312
I0719 19:51:23.432505 32432 layer_factory.hpp:77] Creating layer conv9_1_relu
I0719 19:51:23.432518 32432 net.cpp:100] Creating Layer conv9_1_relu
I0719 19:51:23.432528 32432 net.cpp:434] conv9_1_relu <- conv9_1
I0719 19:51:23.432539 32432 net.cpp:395] conv9_1_relu -> conv9_1 (in-place)
I0719 19:51:23.432550 32432 net.cpp:150] Setting up conv9_1_relu
I0719 19:51:23.432561 32432 net.cpp:157] Top shape: 8 128 3 3 (9216)
I0719 19:51:23.432571 32432 net.cpp:165] Memory required for data: 1882202176
I0719 19:51:23.432580 32432 layer_factory.hpp:77] Creating layer conv9_2
I0719 19:51:23.432597 32432 net.cpp:100] Creating Layer conv9_2
I0719 19:51:23.432615 32432 net.cpp:434] conv9_2 <- conv9_1
I0719 19:51:23.432627 32432 net.cpp:408] conv9_2 -> conv9_2
I0719 19:51:23.434283 32432 net.cpp:150] Setting up conv9_2
I0719 19:51:23.434293 32432 net.cpp:157] Top shape: 8 256 1 1 (2048)
I0719 19:51:23.434294 32432 net.cpp:165] Memory required for data: 1882210368
I0719 19:51:23.434298 32432 layer_factory.hpp:77] Creating layer conv9_2_relu
I0719 19:51:23.434303 32432 net.cpp:100] Creating Layer conv9_2_relu
I0719 19:51:23.434304 32432 net.cpp:434] conv9_2_relu <- conv9_2
I0719 19:51:23.434309 32432 net.cpp:395] conv9_2_relu -> conv9_2 (in-place)
I0719 19:51:23.434312 32432 net.cpp:150] Setting up conv9_2_relu
I0719 19:51:23.434315 32432 net.cpp:157] Top shape: 8 256 1 1 (2048)
I0719 19:51:23.434317 32432 net.cpp:165] Memory required for data: 1882218560
I0719 19:51:23.434319 32432 layer_factory.hpp:77] Creating layer conv9_2_conv9_2_relu_0_split
I0719 19:51:23.434324 32432 net.cpp:100] Creating Layer conv9_2_conv9_2_relu_0_split
I0719 19:51:23.434324 32432 net.cpp:434] conv9_2_conv9_2_relu_0_split <- conv9_2
I0719 19:51:23.434327 32432 net.cpp:408] conv9_2_conv9_2_relu_0_split -> conv9_2_conv9_2_relu_0_split_0
I0719 19:51:23.434334 32432 net.cpp:408] conv9_2_conv9_2_relu_0_split -> conv9_2_conv9_2_relu_0_split_1
I0719 19:51:23.434337 32432 net.cpp:408] conv9_2_conv9_2_relu_0_split -> conv9_2_conv9_2_relu_0_split_2
I0719 19:51:23.434367 32432 net.cpp:150] Setting up conv9_2_conv9_2_relu_0_split
I0719 19:51:23.434371 32432 net.cpp:157] Top shape: 8 256 1 1 (2048)
I0719 19:51:23.434373 32432 net.cpp:157] Top shape: 8 256 1 1 (2048)
I0719 19:51:23.434376 32432 net.cpp:157] Top shape: 8 256 1 1 (2048)
I0719 19:51:23.434377 32432 net.cpp:165] Memory required for data: 1882243136
I0719 19:51:23.434379 32432 layer_factory.hpp:77] Creating layer conv4_3_norm
I0719 19:51:23.434384 32432 net.cpp:100] Creating Layer conv4_3_norm
I0719 19:51:23.434387 32432 net.cpp:434] conv4_3_norm <- conv4_3_relu4_3_0_split_1
I0719 19:51:23.434391 32432 net.cpp:408] conv4_3_norm -> conv4_3_norm
I0719 19:51:23.434463 32432 net.cpp:150] Setting up conv4_3_norm
I0719 19:51:23.434466 32432 net.cpp:157] Top shape: 8 512 38 38 (5914624)
I0719 19:51:23.434469 32432 net.cpp:165] Memory required for data: 1905901632
I0719 19:51:23.434471 32432 layer_factory.hpp:77] Creating layer conv4_3_norm_conv4_3_norm_0_split
I0719 19:51:23.434475 32432 net.cpp:100] Creating Layer conv4_3_norm_conv4_3_norm_0_split
I0719 19:51:23.434478 32432 net.cpp:434] conv4_3_norm_conv4_3_norm_0_split <- conv4_3_norm
I0719 19:51:23.434480 32432 net.cpp:408] conv4_3_norm_conv4_3_norm_0_split -> conv4_3_norm_conv4_3_norm_0_split_0
I0719 19:51:23.434484 32432 net.cpp:408] conv4_3_norm_conv4_3_norm_0_split -> conv4_3_norm_conv4_3_norm_0_split_1
I0719 19:51:23.434487 32432 net.cpp:408] conv4_3_norm_conv4_3_norm_0_split -> conv4_3_norm_conv4_3_norm_0_split_2
I0719 19:51:23.434511 32432 net.cpp:150] Setting up conv4_3_norm_conv4_3_norm_0_split
I0719 19:51:23.434515 32432 net.cpp:157] Top shape: 8 512 38 38 (5914624)
I0719 19:51:23.434518 32432 net.cpp:157] Top shape: 8 512 38 38 (5914624)
I0719 19:51:23.434520 32432 net.cpp:157] Top shape: 8 512 38 38 (5914624)
I0719 19:51:23.434522 32432 net.cpp:165] Memory required for data: 1976877120
I0719 19:51:23.434525 32432 layer_factory.hpp:77] Creating layer conv4_3_norm_mbox_loc
I0719 19:51:23.434530 32432 net.cpp:100] Creating Layer conv4_3_norm_mbox_loc
I0719 19:51:23.434531 32432 net.cpp:434] conv4_3_norm_mbox_loc <- conv4_3_norm_conv4_3_norm_0_split_0
I0719 19:51:23.434535 32432 net.cpp:408] conv4_3_norm_mbox_loc -> conv4_3_norm_mbox_loc
I0719 19:51:23.434883 32432 net.cpp:150] Setting up conv4_3_norm_mbox_loc
I0719 19:51:23.434887 32432 net.cpp:157] Top shape: 8 16 38 38 (184832)
I0719 19:51:23.434890 32432 net.cpp:165] Memory required for data: 1977616448
I0719 19:51:23.434892 32432 layer_factory.hpp:77] Creating layer conv4_3_norm_mbox_loc_perm
I0719 19:51:23.434897 32432 net.cpp:100] Creating Layer conv4_3_norm_mbox_loc_perm
I0719 19:51:23.434900 32432 net.cpp:434] conv4_3_norm_mbox_loc_perm <- conv4_3_norm_mbox_loc
I0719 19:51:23.434911 32432 net.cpp:408] conv4_3_norm_mbox_loc_perm -> conv4_3_norm_mbox_loc_perm
I0719 19:51:23.434959 32432 net.cpp:150] Setting up conv4_3_norm_mbox_loc_perm
I0719 19:51:23.434963 32432 net.cpp:157] Top shape: 8 38 38 16 (184832)
I0719 19:51:23.434965 32432 net.cpp:165] Memory required for data: 1978355776
I0719 19:51:23.434967 32432 layer_factory.hpp:77] Creating layer conv4_3_norm_mbox_loc_flat
I0719 19:51:23.434972 32432 net.cpp:100] Creating Layer conv4_3_norm_mbox_loc_flat
I0719 19:51:23.434974 32432 net.cpp:434] conv4_3_norm_mbox_loc_flat <- conv4_3_norm_mbox_loc_perm
I0719 19:51:23.434978 32432 net.cpp:408] conv4_3_norm_mbox_loc_flat -> conv4_3_norm_mbox_loc_flat
I0719 19:51:23.434996 32432 net.cpp:150] Setting up conv4_3_norm_mbox_loc_flat
I0719 19:51:23.434999 32432 net.cpp:157] Top shape: 8 23104 (184832)
I0719 19:51:23.435003 32432 net.cpp:165] Memory required for data: 1979095104
I0719 19:51:23.435004 32432 layer_factory.hpp:77] Creating layer conv4_3_norm_mbox_conf
I0719 19:51:23.435016 32432 net.cpp:100] Creating Layer conv4_3_norm_mbox_conf
I0719 19:51:23.435019 32432 net.cpp:434] conv4_3_norm_mbox_conf <- conv4_3_norm_conv4_3_norm_0_split_1
I0719 19:51:23.435022 32432 net.cpp:408] conv4_3_norm_mbox_conf -> conv4_3_norm_mbox_conf
I0719 19:51:23.436873 32432 net.cpp:150] Setting up conv4_3_norm_mbox_conf
I0719 19:51:23.436883 32432 net.cpp:157] Top shape: 8 84 38 38 (970368)
I0719 19:51:23.436885 32432 net.cpp:165] Memory required for data: 1982976576
I0719 19:51:23.436890 32432 layer_factory.hpp:77] Creating layer conv4_3_norm_mbox_conf_perm
I0719 19:51:23.436895 32432 net.cpp:100] Creating Layer conv4_3_norm_mbox_conf_perm
I0719 19:51:23.436897 32432 net.cpp:434] conv4_3_norm_mbox_conf_perm <- conv4_3_norm_mbox_conf
I0719 19:51:23.436902 32432 net.cpp:408] conv4_3_norm_mbox_conf_perm -> conv4_3_norm_mbox_conf_perm
I0719 19:51:23.436952 32432 net.cpp:150] Setting up conv4_3_norm_mbox_conf_perm
I0719 19:51:23.436956 32432 net.cpp:157] Top shape: 8 38 38 84 (970368)
I0719 19:51:23.436959 32432 net.cpp:165] Memory required for data: 1986858048
I0719 19:51:23.436960 32432 layer_factory.hpp:77] Creating layer conv4_3_norm_mbox_conf_flat
I0719 19:51:23.436964 32432 net.cpp:100] Creating Layer conv4_3_norm_mbox_conf_flat
I0719 19:51:23.436965 32432 net.cpp:434] conv4_3_norm_mbox_conf_flat <- conv4_3_norm_mbox_conf_perm
I0719 19:51:23.436969 32432 net.cpp:408] conv4_3_norm_mbox_conf_flat -> conv4_3_norm_mbox_conf_flat
I0719 19:51:23.436983 32432 net.cpp:150] Setting up conv4_3_norm_mbox_conf_flat
I0719 19:51:23.436987 32432 net.cpp:157] Top shape: 8 121296 (970368)
I0719 19:51:23.436990 32432 net.cpp:165] Memory required for data: 1990739520
I0719 19:51:23.436991 32432 layer_factory.hpp:77] Creating layer conv4_3_norm_mbox_priorbox
I0719 19:51:23.436995 32432 net.cpp:100] Creating Layer conv4_3_norm_mbox_priorbox
I0719 19:51:23.436998 32432 net.cpp:434] conv4_3_norm_mbox_priorbox <- conv4_3_norm_conv4_3_norm_0_split_2
I0719 19:51:23.437001 32432 net.cpp:434] conv4_3_norm_mbox_priorbox <- data_data_0_split_1
I0719 19:51:23.437006 32432 net.cpp:408] conv4_3_norm_mbox_priorbox -> conv4_3_norm_mbox_priorbox
I0719 19:51:23.437021 32432 net.cpp:150] Setting up conv4_3_norm_mbox_priorbox
I0719 19:51:23.437026 32432 net.cpp:157] Top shape: 1 2 23104 (46208)
I0719 19:51:23.437027 32432 net.cpp:165] Memory required for data: 1990924352
I0719 19:51:23.437029 32432 layer_factory.hpp:77] Creating layer fc7_mbox_loc
I0719 19:51:23.437036 32432 net.cpp:100] Creating Layer fc7_mbox_loc
I0719 19:51:23.437038 32432 net.cpp:434] fc7_mbox_loc <- fc7_relu7_0_split_1
I0719 19:51:23.437043 32432 net.cpp:408] fc7_mbox_loc -> fc7_mbox_loc
I0719 19:51:23.437858 32432 net.cpp:150] Setting up fc7_mbox_loc
I0719 19:51:23.437863 32432 net.cpp:157] Top shape: 8 24 19 19 (69312)
I0719 19:51:23.437866 32432 net.cpp:165] Memory required for data: 1991201600
I0719 19:51:23.437870 32432 layer_factory.hpp:77] Creating layer fc7_mbox_loc_perm
I0719 19:51:23.437873 32432 net.cpp:100] Creating Layer fc7_mbox_loc_perm
I0719 19:51:23.437885 32432 net.cpp:434] fc7_mbox_loc_perm <- fc7_mbox_loc
I0719 19:51:23.437888 32432 net.cpp:408] fc7_mbox_loc_perm -> fc7_mbox_loc_perm
I0719 19:51:23.437939 32432 net.cpp:150] Setting up fc7_mbox_loc_perm
I0719 19:51:23.437943 32432 net.cpp:157] Top shape: 8 19 19 24 (69312)
I0719 19:51:23.437944 32432 net.cpp:165] Memory required for data: 1991478848
I0719 19:51:23.437947 32432 layer_factory.hpp:77] Creating layer fc7_mbox_loc_flat
I0719 19:51:23.437950 32432 net.cpp:100] Creating Layer fc7_mbox_loc_flat
I0719 19:51:23.437952 32432 net.cpp:434] fc7_mbox_loc_flat <- fc7_mbox_loc_perm
I0719 19:51:23.437957 32432 net.cpp:408] fc7_mbox_loc_flat -> fc7_mbox_loc_flat
I0719 19:51:23.437969 32432 net.cpp:150] Setting up fc7_mbox_loc_flat
I0719 19:51:23.437973 32432 net.cpp:157] Top shape: 8 8664 (69312)
I0719 19:51:23.437974 32432 net.cpp:165] Memory required for data: 1991756096
I0719 19:51:23.437976 32432 layer_factory.hpp:77] Creating layer fc7_mbox_conf
I0719 19:51:23.437981 32432 net.cpp:100] Creating Layer fc7_mbox_conf
I0719 19:51:23.437984 32432 net.cpp:434] fc7_mbox_conf <- fc7_relu7_0_split_2
I0719 19:51:23.437988 32432 net.cpp:408] fc7_mbox_conf -> fc7_mbox_conf
I0719 19:51:23.442907 32432 net.cpp:150] Setting up fc7_mbox_conf
I0719 19:51:23.442965 32432 net.cpp:157] Top shape: 8 126 19 19 (363888)
I0719 19:51:23.442973 32432 net.cpp:165] Memory required for data: 1993211648
I0719 19:51:23.442986 32432 layer_factory.hpp:77] Creating layer fc7_mbox_conf_perm
I0719 19:51:23.443001 32432 net.cpp:100] Creating Layer fc7_mbox_conf_perm
I0719 19:51:23.443011 32432 net.cpp:434] fc7_mbox_conf_perm <- fc7_mbox_conf
I0719 19:51:23.443022 32432 net.cpp:408] fc7_mbox_conf_perm -> fc7_mbox_conf_perm
I0719 19:51:23.443089 32432 net.cpp:150] Setting up fc7_mbox_conf_perm
I0719 19:51:23.443099 32432 net.cpp:157] Top shape: 8 19 19 126 (363888)
I0719 19:51:23.443107 32432 net.cpp:165] Memory required for data: 1994667200
I0719 19:51:23.443114 32432 layer_factory.hpp:77] Creating layer fc7_mbox_conf_flat
I0719 19:51:23.443122 32432 net.cpp:100] Creating Layer fc7_mbox_conf_flat
I0719 19:51:23.443130 32432 net.cpp:434] fc7_mbox_conf_flat <- fc7_mbox_conf_perm
I0719 19:51:23.443138 32432 net.cpp:408] fc7_mbox_conf_flat -> fc7_mbox_conf_flat
I0719 19:51:23.443158 32432 net.cpp:150] Setting up fc7_mbox_conf_flat
I0719 19:51:23.443167 32432 net.cpp:157] Top shape: 8 45486 (363888)
I0719 19:51:23.443173 32432 net.cpp:165] Memory required for data: 1996122752
I0719 19:51:23.443181 32432 layer_factory.hpp:77] Creating layer fc7_mbox_priorbox
I0719 19:51:23.443190 32432 net.cpp:100] Creating Layer fc7_mbox_priorbox
I0719 19:51:23.443198 32432 net.cpp:434] fc7_mbox_priorbox <- fc7_relu7_0_split_3
I0719 19:51:23.443207 32432 net.cpp:434] fc7_mbox_priorbox <- data_data_0_split_2
I0719 19:51:23.443214 32432 net.cpp:408] fc7_mbox_priorbox -> fc7_mbox_priorbox
I0719 19:51:23.443236 32432 net.cpp:150] Setting up fc7_mbox_priorbox
I0719 19:51:23.443245 32432 net.cpp:157] Top shape: 1 2 8664 (17328)
I0719 19:51:23.443253 32432 net.cpp:165] Memory required for data: 1996192064
I0719 19:51:23.443259 32432 layer_factory.hpp:77] Creating layer conv6_2_mbox_loc
I0719 19:51:23.443270 32432 net.cpp:100] Creating Layer conv6_2_mbox_loc
I0719 19:51:23.443279 32432 net.cpp:434] conv6_2_mbox_loc <- conv6_2_conv6_2_relu_0_split_1
I0719 19:51:23.443289 32432 net.cpp:408] conv6_2_mbox_loc -> conv6_2_mbox_loc
I0719 19:51:23.443768 32432 net.cpp:150] Setting up conv6_2_mbox_loc
I0719 19:51:23.443774 32432 net.cpp:157] Top shape: 8 24 10 10 (19200)
I0719 19:51:23.443776 32432 net.cpp:165] Memory required for data: 1996268864
I0719 19:51:23.443779 32432 layer_factory.hpp:77] Creating layer conv6_2_mbox_loc_perm
I0719 19:51:23.443783 32432 net.cpp:100] Creating Layer conv6_2_mbox_loc_perm
I0719 19:51:23.443786 32432 net.cpp:434] conv6_2_mbox_loc_perm <- conv6_2_mbox_loc
I0719 19:51:23.443789 32432 net.cpp:408] conv6_2_mbox_loc_perm -> conv6_2_mbox_loc_perm
I0719 19:51:23.443838 32432 net.cpp:150] Setting up conv6_2_mbox_loc_perm
I0719 19:51:23.443852 32432 net.cpp:157] Top shape: 8 10 10 24 (19200)
I0719 19:51:23.443855 32432 net.cpp:165] Memory required for data: 1996345664
I0719 19:51:23.443856 32432 layer_factory.hpp:77] Creating layer conv6_2_mbox_loc_flat
I0719 19:51:23.443859 32432 net.cpp:100] Creating Layer conv6_2_mbox_loc_flat
I0719 19:51:23.443862 32432 net.cpp:434] conv6_2_mbox_loc_flat <- conv6_2_mbox_loc_perm
I0719 19:51:23.443864 32432 net.cpp:408] conv6_2_mbox_loc_flat -> conv6_2_mbox_loc_flat
I0719 19:51:23.443878 32432 net.cpp:150] Setting up conv6_2_mbox_loc_flat
I0719 19:51:23.443881 32432 net.cpp:157] Top shape: 8 2400 (19200)
I0719 19:51:23.443883 32432 net.cpp:165] Memory required for data: 1996422464
I0719 19:51:23.443886 32432 layer_factory.hpp:77] Creating layer conv6_2_mbox_conf
I0719 19:51:23.443889 32432 net.cpp:100] Creating Layer conv6_2_mbox_conf
I0719 19:51:23.443892 32432 net.cpp:434] conv6_2_mbox_conf <- conv6_2_conv6_2_relu_0_split_2
I0719 19:51:23.443897 32432 net.cpp:408] conv6_2_mbox_conf -> conv6_2_mbox_conf
I0719 19:51:23.446547 32432 net.cpp:150] Setting up conv6_2_mbox_conf
I0719 19:51:23.446558 32432 net.cpp:157] Top shape: 8 126 10 10 (100800)
I0719 19:51:23.446560 32432 net.cpp:165] Memory required for data: 1996825664
I0719 19:51:23.446566 32432 layer_factory.hpp:77] Creating layer conv6_2_mbox_conf_perm
I0719 19:51:23.446573 32432 net.cpp:100] Creating Layer conv6_2_mbox_conf_perm
I0719 19:51:23.446575 32432 net.cpp:434] conv6_2_mbox_conf_perm <- conv6_2_mbox_conf
I0719 19:51:23.446579 32432 net.cpp:408] conv6_2_mbox_conf_perm -> conv6_2_mbox_conf_perm
I0719 19:51:23.446633 32432 net.cpp:150] Setting up conv6_2_mbox_conf_perm
I0719 19:51:23.446637 32432 net.cpp:157] Top shape: 8 10 10 126 (100800)
I0719 19:51:23.446640 32432 net.cpp:165] Memory required for data: 1997228864
I0719 19:51:23.446641 32432 layer_factory.hpp:77] Creating layer conv6_2_mbox_conf_flat
I0719 19:51:23.446645 32432 net.cpp:100] Creating Layer conv6_2_mbox_conf_flat
I0719 19:51:23.446647 32432 net.cpp:434] conv6_2_mbox_conf_flat <- conv6_2_mbox_conf_perm
I0719 19:51:23.446653 32432 net.cpp:408] conv6_2_mbox_conf_flat -> conv6_2_mbox_conf_flat
I0719 19:51:23.446667 32432 net.cpp:150] Setting up conv6_2_mbox_conf_flat
I0719 19:51:23.446671 32432 net.cpp:157] Top shape: 8 12600 (100800)
I0719 19:51:23.446673 32432 net.cpp:165] Memory required for data: 1997632064
I0719 19:51:23.446674 32432 layer_factory.hpp:77] Creating layer conv6_2_mbox_priorbox
I0719 19:51:23.446678 32432 net.cpp:100] Creating Layer conv6_2_mbox_priorbox
I0719 19:51:23.446682 32432 net.cpp:434] conv6_2_mbox_priorbox <- conv6_2_conv6_2_relu_0_split_3
I0719 19:51:23.446684 32432 net.cpp:434] conv6_2_mbox_priorbox <- data_data_0_split_3
I0719 19:51:23.446689 32432 net.cpp:408] conv6_2_mbox_priorbox -> conv6_2_mbox_priorbox
I0719 19:51:23.446703 32432 net.cpp:150] Setting up conv6_2_mbox_priorbox
I0719 19:51:23.446707 32432 net.cpp:157] Top shape: 1 2 2400 (4800)
I0719 19:51:23.446709 32432 net.cpp:165] Memory required for data: 1997651264
I0719 19:51:23.446710 32432 layer_factory.hpp:77] Creating layer conv7_2_mbox_loc
I0719 19:51:23.446717 32432 net.cpp:100] Creating Layer conv7_2_mbox_loc
I0719 19:51:23.446719 32432 net.cpp:434] conv7_2_mbox_loc <- conv7_2_conv7_2_relu_0_split_1
I0719 19:51:23.446724 32432 net.cpp:408] conv7_2_mbox_loc -> conv7_2_mbox_loc
I0719 19:51:23.447039 32432 net.cpp:150] Setting up conv7_2_mbox_loc
I0719 19:51:23.447044 32432 net.cpp:157] Top shape: 8 24 5 5 (4800)
I0719 19:51:23.447046 32432 net.cpp:165] Memory required for data: 1997670464
I0719 19:51:23.447051 32432 layer_factory.hpp:77] Creating layer conv7_2_mbox_loc_perm
I0719 19:51:23.447053 32432 net.cpp:100] Creating Layer conv7_2_mbox_loc_perm
I0719 19:51:23.447057 32432 net.cpp:434] conv7_2_mbox_loc_perm <- conv7_2_mbox_loc
I0719 19:51:23.447060 32432 net.cpp:408] conv7_2_mbox_loc_perm -> conv7_2_mbox_loc_perm
I0719 19:51:23.447108 32432 net.cpp:150] Setting up conv7_2_mbox_loc_perm
I0719 19:51:23.447111 32432 net.cpp:157] Top shape: 8 5 5 24 (4800)
I0719 19:51:23.447113 32432 net.cpp:165] Memory required for data: 1997689664
I0719 19:51:23.447124 32432 layer_factory.hpp:77] Creating layer conv7_2_mbox_loc_flat
I0719 19:51:23.447129 32432 net.cpp:100] Creating Layer conv7_2_mbox_loc_flat
I0719 19:51:23.447131 32432 net.cpp:434] conv7_2_mbox_loc_flat <- conv7_2_mbox_loc_perm
I0719 19:51:23.447134 32432 net.cpp:408] conv7_2_mbox_loc_flat -> conv7_2_mbox_loc_flat
I0719 19:51:23.447147 32432 net.cpp:150] Setting up conv7_2_mbox_loc_flat
I0719 19:51:23.447151 32432 net.cpp:157] Top shape: 8 600 (4800)
I0719 19:51:23.447154 32432 net.cpp:165] Memory required for data: 1997708864
I0719 19:51:23.447154 32432 layer_factory.hpp:77] Creating layer conv7_2_mbox_conf
I0719 19:51:23.447160 32432 net.cpp:100] Creating Layer conv7_2_mbox_conf
I0719 19:51:23.447163 32432 net.cpp:434] conv7_2_mbox_conf <- conv7_2_conv7_2_relu_0_split_2
I0719 19:51:23.447167 32432 net.cpp:408] conv7_2_mbox_conf -> conv7_2_mbox_conf
I0719 19:51:23.448724 32432 net.cpp:150] Setting up conv7_2_mbox_conf
I0719 19:51:23.448735 32432 net.cpp:157] Top shape: 8 126 5 5 (25200)
I0719 19:51:23.448737 32432 net.cpp:165] Memory required for data: 1997809664
I0719 19:51:23.448741 32432 layer_factory.hpp:77] Creating layer conv7_2_mbox_conf_perm
I0719 19:51:23.448747 32432 net.cpp:100] Creating Layer conv7_2_mbox_conf_perm
I0719 19:51:23.448751 32432 net.cpp:434] conv7_2_mbox_conf_perm <- conv7_2_mbox_conf
I0719 19:51:23.448755 32432 net.cpp:408] conv7_2_mbox_conf_perm -> conv7_2_mbox_conf_perm
I0719 19:51:23.448804 32432 net.cpp:150] Setting up conv7_2_mbox_conf_perm
I0719 19:51:23.448809 32432 net.cpp:157] Top shape: 8 5 5 126 (25200)
I0719 19:51:23.448812 32432 net.cpp:165] Memory required for data: 1997910464
I0719 19:51:23.448813 32432 layer_factory.hpp:77] Creating layer conv7_2_mbox_conf_flat
I0719 19:51:23.448817 32432 net.cpp:100] Creating Layer conv7_2_mbox_conf_flat
I0719 19:51:23.448820 32432 net.cpp:434] conv7_2_mbox_conf_flat <- conv7_2_mbox_conf_perm
I0719 19:51:23.448825 32432 net.cpp:408] conv7_2_mbox_conf_flat -> conv7_2_mbox_conf_flat
I0719 19:51:23.448837 32432 net.cpp:150] Setting up conv7_2_mbox_conf_flat
I0719 19:51:23.448840 32432 net.cpp:157] Top shape: 8 3150 (25200)
I0719 19:51:23.448843 32432 net.cpp:165] Memory required for data: 1998011264
I0719 19:51:23.448844 32432 layer_factory.hpp:77] Creating layer conv7_2_mbox_priorbox
I0719 19:51:23.448849 32432 net.cpp:100] Creating Layer conv7_2_mbox_priorbox
I0719 19:51:23.448853 32432 net.cpp:434] conv7_2_mbox_priorbox <- conv7_2_conv7_2_relu_0_split_3
I0719 19:51:23.448855 32432 net.cpp:434] conv7_2_mbox_priorbox <- data_data_0_split_4
I0719 19:51:23.448861 32432 net.cpp:408] conv7_2_mbox_priorbox -> conv7_2_mbox_priorbox
I0719 19:51:23.448875 32432 net.cpp:150] Setting up conv7_2_mbox_priorbox
I0719 19:51:23.448879 32432 net.cpp:157] Top shape: 1 2 600 (1200)
I0719 19:51:23.448880 32432 net.cpp:165] Memory required for data: 1998016064
I0719 19:51:23.448884 32432 layer_factory.hpp:77] Creating layer conv8_2_mbox_loc
I0719 19:51:23.448890 32432 net.cpp:100] Creating Layer conv8_2_mbox_loc
I0719 19:51:23.448892 32432 net.cpp:434] conv8_2_mbox_loc <- conv8_2_conv8_2_relu_0_split_1
I0719 19:51:23.448896 32432 net.cpp:408] conv8_2_mbox_loc -> conv8_2_mbox_loc
I0719 19:51:23.449131 32432 net.cpp:150] Setting up conv8_2_mbox_loc
I0719 19:51:23.449134 32432 net.cpp:157] Top shape: 8 16 3 3 (1152)
I0719 19:51:23.449136 32432 net.cpp:165] Memory required for data: 1998020672
I0719 19:51:23.449147 32432 layer_factory.hpp:77] Creating layer conv8_2_mbox_loc_perm
I0719 19:51:23.449151 32432 net.cpp:100] Creating Layer conv8_2_mbox_loc_perm
I0719 19:51:23.449153 32432 net.cpp:434] conv8_2_mbox_loc_perm <- conv8_2_mbox_loc
I0719 19:51:23.449157 32432 net.cpp:408] conv8_2_mbox_loc_perm -> conv8_2_mbox_loc_perm
I0719 19:51:23.449205 32432 net.cpp:150] Setting up conv8_2_mbox_loc_perm
I0719 19:51:23.449210 32432 net.cpp:157] Top shape: 8 3 3 16 (1152)
I0719 19:51:23.449211 32432 net.cpp:165] Memory required for data: 1998025280
I0719 19:51:23.449213 32432 layer_factory.hpp:77] Creating layer conv8_2_mbox_loc_flat
I0719 19:51:23.449224 32432 net.cpp:100] Creating Layer conv8_2_mbox_loc_flat
I0719 19:51:23.449228 32432 net.cpp:434] conv8_2_mbox_loc_flat <- conv8_2_mbox_loc_perm
I0719 19:51:23.449231 32432 net.cpp:408] conv8_2_mbox_loc_flat -> conv8_2_mbox_loc_flat
I0719 19:51:23.449244 32432 net.cpp:150] Setting up conv8_2_mbox_loc_flat
I0719 19:51:23.449247 32432 net.cpp:157] Top shape: 8 144 (1152)
I0719 19:51:23.449249 32432 net.cpp:165] Memory required for data: 1998029888
I0719 19:51:23.449251 32432 layer_factory.hpp:77] Creating layer conv8_2_mbox_conf
I0719 19:51:23.449255 32432 net.cpp:100] Creating Layer conv8_2_mbox_conf
I0719 19:51:23.449259 32432 net.cpp:434] conv8_2_mbox_conf <- conv8_2_conv8_2_relu_0_split_2
I0719 19:51:23.449265 32432 net.cpp:408] conv8_2_mbox_conf -> conv8_2_mbox_conf
I0719 19:51:23.449978 32432 net.cpp:150] Setting up conv8_2_mbox_conf
I0719 19:51:23.449983 32432 net.cpp:157] Top shape: 8 84 3 3 (6048)
I0719 19:51:23.449985 32432 net.cpp:165] Memory required for data: 1998054080
I0719 19:51:23.449988 32432 layer_factory.hpp:77] Creating layer conv8_2_mbox_conf_perm
I0719 19:51:23.449992 32432 net.cpp:100] Creating Layer conv8_2_mbox_conf_perm
I0719 19:51:23.449995 32432 net.cpp:434] conv8_2_mbox_conf_perm <- conv8_2_mbox_conf
I0719 19:51:23.449997 32432 net.cpp:408] conv8_2_mbox_conf_perm -> conv8_2_mbox_conf_perm
I0719 19:51:23.450052 32432 net.cpp:150] Setting up conv8_2_mbox_conf_perm
I0719 19:51:23.450057 32432 net.cpp:157] Top shape: 8 3 3 84 (6048)
I0719 19:51:23.450058 32432 net.cpp:165] Memory required for data: 1998078272
I0719 19:51:23.450060 32432 layer_factory.hpp:77] Creating layer conv8_2_mbox_conf_flat
I0719 19:51:23.450064 32432 net.cpp:100] Creating Layer conv8_2_mbox_conf_flat
I0719 19:51:23.450067 32432 net.cpp:434] conv8_2_mbox_conf_flat <- conv8_2_mbox_conf_perm
I0719 19:51:23.450073 32432 net.cpp:408] conv8_2_mbox_conf_flat -> conv8_2_mbox_conf_flat
I0719 19:51:23.450085 32432 net.cpp:150] Setting up conv8_2_mbox_conf_flat
I0719 19:51:23.450088 32432 net.cpp:157] Top shape: 8 756 (6048)
I0719 19:51:23.450090 32432 net.cpp:165] Memory required for data: 1998102464
I0719 19:51:23.450091 32432 layer_factory.hpp:77] Creating layer conv8_2_mbox_priorbox
I0719 19:51:23.450096 32432 net.cpp:100] Creating Layer conv8_2_mbox_priorbox
I0719 19:51:23.450100 32432 net.cpp:434] conv8_2_mbox_priorbox <- conv8_2_conv8_2_relu_0_split_3
I0719 19:51:23.450103 32432 net.cpp:434] conv8_2_mbox_priorbox <- data_data_0_split_5
I0719 19:51:23.450109 32432 net.cpp:408] conv8_2_mbox_priorbox -> conv8_2_mbox_priorbox
I0719 19:51:23.450125 32432 net.cpp:150] Setting up conv8_2_mbox_priorbox
I0719 19:51:23.450129 32432 net.cpp:157] Top shape: 1 2 144 (288)
I0719 19:51:23.450131 32432 net.cpp:165] Memory required for data: 1998103616
I0719 19:51:23.450134 32432 layer_factory.hpp:77] Creating layer conv9_2_mbox_loc
I0719 19:51:23.450141 32432 net.cpp:100] Creating Layer conv9_2_mbox_loc
I0719 19:51:23.450145 32432 net.cpp:434] conv9_2_mbox_loc <- conv9_2_conv9_2_relu_0_split_0
I0719 19:51:23.450150 32432 net.cpp:408] conv9_2_mbox_loc -> conv9_2_mbox_loc
I0719 19:51:23.450408 32432 net.cpp:150] Setting up conv9_2_mbox_loc
I0719 19:51:23.450412 32432 net.cpp:157] Top shape: 8 16 1 1 (128)
I0719 19:51:23.450415 32432 net.cpp:165] Memory required for data: 1998104128
I0719 19:51:23.450418 32432 layer_factory.hpp:77] Creating layer conv9_2_mbox_loc_perm
I0719 19:51:23.450423 32432 net.cpp:100] Creating Layer conv9_2_mbox_loc_perm
I0719 19:51:23.450426 32432 net.cpp:434] conv9_2_mbox_loc_perm <- conv9_2_mbox_loc
I0719 19:51:23.450429 32432 net.cpp:408] conv9_2_mbox_loc_perm -> conv9_2_mbox_loc_perm
I0719 19:51:23.450482 32432 net.cpp:150] Setting up conv9_2_mbox_loc_perm
I0719 19:51:23.450486 32432 net.cpp:157] Top shape: 8 1 1 16 (128)
I0719 19:51:23.450487 32432 net.cpp:165] Memory required for data: 1998104640
I0719 19:51:23.450490 32432 layer_factory.hpp:77] Creating layer conv9_2_mbox_loc_flat
I0719 19:51:23.450495 32432 net.cpp:100] Creating Layer conv9_2_mbox_loc_flat
I0719 19:51:23.450508 32432 net.cpp:434] conv9_2_mbox_loc_flat <- conv9_2_mbox_loc_perm
I0719 19:51:23.450513 32432 net.cpp:408] conv9_2_mbox_loc_flat -> conv9_2_mbox_loc_flat
I0719 19:51:23.450528 32432 net.cpp:150] Setting up conv9_2_mbox_loc_flat
I0719 19:51:23.450532 32432 net.cpp:157] Top shape: 8 16 (128)
I0719 19:51:23.450533 32432 net.cpp:165] Memory required for data: 1998105152
I0719 19:51:23.450536 32432 layer_factory.hpp:77] Creating layer conv9_2_mbox_conf
I0719 19:51:23.450544 32432 net.cpp:100] Creating Layer conv9_2_mbox_conf
I0719 19:51:23.450547 32432 net.cpp:434] conv9_2_mbox_conf <- conv9_2_conv9_2_relu_0_split_1
I0719 19:51:23.450553 32432 net.cpp:408] conv9_2_mbox_conf -> conv9_2_mbox_conf
I0719 19:51:23.451334 32432 net.cpp:150] Setting up conv9_2_mbox_conf
I0719 19:51:23.451340 32432 net.cpp:157] Top shape: 8 84 1 1 (672)
I0719 19:51:23.451341 32432 net.cpp:165] Memory required for data: 1998107840
I0719 19:51:23.451345 32432 layer_factory.hpp:77] Creating layer conv9_2_mbox_conf_perm
I0719 19:51:23.451349 32432 net.cpp:100] Creating Layer conv9_2_mbox_conf_perm
I0719 19:51:23.451352 32432 net.cpp:434] conv9_2_mbox_conf_perm <- conv9_2_mbox_conf
I0719 19:51:23.451356 32432 net.cpp:408] conv9_2_mbox_conf_perm -> conv9_2_mbox_conf_perm
I0719 19:51:23.451408 32432 net.cpp:150] Setting up conv9_2_mbox_conf_perm
I0719 19:51:23.451412 32432 net.cpp:157] Top shape: 8 1 1 84 (672)
I0719 19:51:23.451414 32432 net.cpp:165] Memory required for data: 1998110528
I0719 19:51:23.451416 32432 layer_factory.hpp:77] Creating layer conv9_2_mbox_conf_flat
I0719 19:51:23.451421 32432 net.cpp:100] Creating Layer conv9_2_mbox_conf_flat
I0719 19:51:23.451424 32432 net.cpp:434] conv9_2_mbox_conf_flat <- conv9_2_mbox_conf_perm
I0719 19:51:23.451427 32432 net.cpp:408] conv9_2_mbox_conf_flat -> conv9_2_mbox_conf_flat
I0719 19:51:23.451439 32432 net.cpp:150] Setting up conv9_2_mbox_conf_flat
I0719 19:51:23.451443 32432 net.cpp:157] Top shape: 8 84 (672)
I0719 19:51:23.451445 32432 net.cpp:165] Memory required for data: 1998113216
I0719 19:51:23.451447 32432 layer_factory.hpp:77] Creating layer conv9_2_mbox_priorbox
I0719 19:51:23.451452 32432 net.cpp:100] Creating Layer conv9_2_mbox_priorbox
I0719 19:51:23.451455 32432 net.cpp:434] conv9_2_mbox_priorbox <- conv9_2_conv9_2_relu_0_split_2
I0719 19:51:23.451457 32432 net.cpp:434] conv9_2_mbox_priorbox <- data_data_0_split_6
I0719 19:51:23.451462 32432 net.cpp:408] conv9_2_mbox_priorbox -> conv9_2_mbox_priorbox
I0719 19:51:23.451474 32432 net.cpp:150] Setting up conv9_2_mbox_priorbox
I0719 19:51:23.451478 32432 net.cpp:157] Top shape: 1 2 16 (32)
I0719 19:51:23.451479 32432 net.cpp:165] Memory required for data: 1998113344
I0719 19:51:23.451483 32432 layer_factory.hpp:77] Creating layer mbox_loc
I0719 19:51:23.451486 32432 net.cpp:100] Creating Layer mbox_loc
I0719 19:51:23.451489 32432 net.cpp:434] mbox_loc <- conv4_3_norm_mbox_loc_flat
I0719 19:51:23.451493 32432 net.cpp:434] mbox_loc <- fc7_mbox_loc_flat
I0719 19:51:23.451498 32432 net.cpp:434] mbox_loc <- conv6_2_mbox_loc_flat
I0719 19:51:23.451500 32432 net.cpp:434] mbox_loc <- conv7_2_mbox_loc_flat
I0719 19:51:23.451503 32432 net.cpp:434] mbox_loc <- conv8_2_mbox_loc_flat
I0719 19:51:23.451506 32432 net.cpp:434] mbox_loc <- conv9_2_mbox_loc_flat
I0719 19:51:23.451509 32432 net.cpp:408] mbox_loc -> mbox_loc
I0719 19:51:23.451524 32432 net.cpp:150] Setting up mbox_loc
I0719 19:51:23.451529 32432 net.cpp:157] Top shape: 8 34928 (279424)
I0719 19:51:23.451529 32432 net.cpp:165] Memory required for data: 1999231040
I0719 19:51:23.451532 32432 layer_factory.hpp:77] Creating layer mbox_conf
I0719 19:51:23.451535 32432 net.cpp:100] Creating Layer mbox_conf
I0719 19:51:23.451537 32432 net.cpp:434] mbox_conf <- conv4_3_norm_mbox_conf_flat
I0719 19:51:23.451540 32432 net.cpp:434] mbox_conf <- fc7_mbox_conf_flat
I0719 19:51:23.451544 32432 net.cpp:434] mbox_conf <- conv6_2_mbox_conf_flat
I0719 19:51:23.451546 32432 net.cpp:434] mbox_conf <- conv7_2_mbox_conf_flat
I0719 19:51:23.451548 32432 net.cpp:434] mbox_conf <- conv8_2_mbox_conf_flat
I0719 19:51:23.451556 32432 net.cpp:434] mbox_conf <- conv9_2_mbox_conf_flat
I0719 19:51:23.451561 32432 net.cpp:408] mbox_conf -> mbox_conf
I0719 19:51:23.451573 32432 net.cpp:150] Setting up mbox_conf
I0719 19:51:23.451577 32432 net.cpp:157] Top shape: 8 183372 (1466976)
I0719 19:51:23.451580 32432 net.cpp:165] Memory required for data: 2005098944
I0719 19:51:23.451582 32432 layer_factory.hpp:77] Creating layer mbox_priorbox
I0719 19:51:23.451586 32432 net.cpp:100] Creating Layer mbox_priorbox
I0719 19:51:23.451588 32432 net.cpp:434] mbox_priorbox <- conv4_3_norm_mbox_priorbox
I0719 19:51:23.451591 32432 net.cpp:434] mbox_priorbox <- fc7_mbox_priorbox
I0719 19:51:23.451593 32432 net.cpp:434] mbox_priorbox <- conv6_2_mbox_priorbox
I0719 19:51:23.451596 32432 net.cpp:434] mbox_priorbox <- conv7_2_mbox_priorbox
I0719 19:51:23.451597 32432 net.cpp:434] mbox_priorbox <- conv8_2_mbox_priorbox
I0719 19:51:23.451599 32432 net.cpp:434] mbox_priorbox <- conv9_2_mbox_priorbox
I0719 19:51:23.451604 32432 net.cpp:408] mbox_priorbox -> mbox_priorbox
I0719 19:51:23.451618 32432 net.cpp:150] Setting up mbox_priorbox
I0719 19:51:23.451622 32432 net.cpp:157] Top shape: 1 2 34928 (69856)
I0719 19:51:23.451624 32432 net.cpp:165] Memory required for data: 2005378368
I0719 19:51:23.451627 32432 layer_factory.hpp:77] Creating layer mbox_conf_reshape
I0719 19:51:23.451632 32432 net.cpp:100] Creating Layer mbox_conf_reshape
I0719 19:51:23.451633 32432 net.cpp:434] mbox_conf_reshape <- mbox_conf
I0719 19:51:23.451637 32432 net.cpp:408] mbox_conf_reshape -> mbox_conf_reshape
I0719 19:51:23.451656 32432 net.cpp:150] Setting up mbox_conf_reshape
I0719 19:51:23.451660 32432 net.cpp:157] Top shape: 8 8732 21 (1466976)
I0719 19:51:23.451663 32432 net.cpp:165] Memory required for data: 2011246272
I0719 19:51:23.451663 32432 layer_factory.hpp:77] Creating layer mbox_conf_softmax
I0719 19:51:23.451668 32432 net.cpp:100] Creating Layer mbox_conf_softmax
I0719 19:51:23.451669 32432 net.cpp:434] mbox_conf_softmax <- mbox_conf_reshape
I0719 19:51:23.451673 32432 net.cpp:408] mbox_conf_softmax -> mbox_conf_softmax
I0719 19:51:23.451709 32432 net.cpp:150] Setting up mbox_conf_softmax
I0719 19:51:23.451714 32432 net.cpp:157] Top shape: 8 8732 21 (1466976)
I0719 19:51:23.451715 32432 net.cpp:165] Memory required for data: 2017114176
I0719 19:51:23.451717 32432 layer_factory.hpp:77] Creating layer mbox_conf_flatten
I0719 19:51:23.451720 32432 net.cpp:100] Creating Layer mbox_conf_flatten
I0719 19:51:23.451725 32432 net.cpp:434] mbox_conf_flatten <- mbox_conf_softmax
I0719 19:51:23.451726 32432 net.cpp:408] mbox_conf_flatten -> mbox_conf_flatten
I0719 19:51:23.451740 32432 net.cpp:150] Setting up mbox_conf_flatten
I0719 19:51:23.451742 32432 net.cpp:157] Top shape: 8 183372 (1466976)
I0719 19:51:23.451745 32432 net.cpp:165] Memory required for data: 2022982080
I0719 19:51:23.451746 32432 layer_factory.hpp:77] Creating layer detection_out
I0719 19:51:23.451755 32432 net.cpp:100] Creating Layer detection_out
I0719 19:51:23.451757 32432 net.cpp:434] detection_out <- mbox_loc
I0719 19:51:23.451761 32432 net.cpp:434] detection_out <- mbox_conf_flatten
I0719 19:51:23.451762 32432 net.cpp:434] detection_out <- mbox_priorbox
I0719 19:51:23.451766 32432 net.cpp:408] detection_out -> detection_out
W0719 19:51:23.451797 32432 detection_output_layer.cpp:49] Failed to create directory: /home/dake/data/VOCdevkit/results/VOC2007/SSD_300x300/Main
I0719 19:51:23.453222 32432 net.cpp:150] Setting up detection_out
I0719 19:51:23.453233 32432 net.cpp:157] Top shape: 1 1 1 7 (7)
I0719 19:51:23.453234 32432 net.cpp:165] Memory required for data: 2022982108
I0719 19:51:23.453238 32432 layer_factory.hpp:77] Creating layer detection_eval
I0719 19:51:23.453243 32432 net.cpp:100] Creating Layer detection_eval
I0719 19:51:23.453246 32432 net.cpp:434] detection_eval <- detection_out
I0719 19:51:23.453249 32432 net.cpp:434] detection_eval <- label
I0719 19:51:23.453253 32432 net.cpp:408] detection_eval -> detection_eval
I0719 19:51:23.453814 32432 net.cpp:150] Setting up detection_eval
I0719 19:51:23.453825 32432 net.cpp:157] Top shape: 1 1 21 5 (105)
I0719 19:51:23.453827 32432 net.cpp:165] Memory required for data: 2022982528
I0719 19:51:23.453830 32432 net.cpp:228] detection_eval does not need backward computation.
I0719 19:51:23.453832 32432 net.cpp:228] detection_out does not need backward computation.
I0719 19:51:23.453835 32432 net.cpp:228] mbox_conf_flatten does not need backward computation.
I0719 19:51:23.453837 32432 net.cpp:228] mbox_conf_softmax does not need backward computation.
…
